{"format": "graph-model", "generatedBy": "2.3.0", "convertedBy": "TensorFlow.js Converter v2.3.0", "userDefinedMetadata": {"signature": {"outputs": {"pred_pose/mul_24:0": {"name": "pred_pose/mul_24:0"}}}}, "modelTopology": {"node": [{"name": "pred_pose/strided_slice/stack", "op": "Const", "attr": {"dtype": {"type": "DT_INT32"}, "value": {"tensor": {"dtype": "DT_INT32", "tensorShape": {"dim": [{"size": "3"}]}}}}}, {"name": "pred_pose/strided_slice/stack_1", "op": "Const", "attr": {"dtype": {"type": "DT_INT32"}, "value": {"tensor": {"dtype": "DT_INT32", "tensorShape": {"dim": [{"size": "3"}]}}}}}, {"name": "pred_pose/strided_slice/stack_2", "op": "Const", "attr": {"value": {"tensor": {"dtype": "DT_INT32", "tensorShape": {"dim": [{"size": "3"}]}}}, "dtype": {"type": "DT_INT32"}}}, {"name": "pred_pose/mul/y", "op": "Const", "attr": {"value": {"tensor": {"dtype": "DT_FLOAT", "tensorShape": {}}}, "dtype": {"type": "DT_FLOAT"}}}, {"name": "pred_pose/add/x", "op": "Const", "attr": {"value": {"tensor": {"dtype": "DT_FLOAT", "tensorShape": {}}}, "dtype": {"type": "DT_FLOAT"}}}, {"name": "pred_pose/strided_slice_3/stack", "op": "Const", "attr": {"value": {"tensor": {"dtype": "DT_INT32", "tensorShape": {"dim": [{"size": "3"}]}}}, "dtype": {"type": "DT_INT32"}}}, {"name": "pred_pose/strided_slice_3/stack_1", "op": "Const", "attr": {"dtype": {"type": "DT_INT32"}, "value": {"tensor": {"dtype": "DT_INT32", "tensorShape": {"dim": [{"size": "3"}]}}}}}, {"name": "pred_pose/strided_slice_3/stack_2", "op": "Const", "attr": {"value": {"tensor": {"dtype": "DT_INT32", "tensorShape": {"dim": [{"size": "3"}]}}}, "dtype": {"type": "DT_INT32"}}}, {"name": "pred_pose/strided_slice_4/stack", "op": "Const", "attr": {"value": {"tensor": {"dtype": "DT_INT32", "tensorShape": {"dim": [{"size": "3"}]}}}, "dtype": {"type": "DT_INT32"}}}, {"name": "pred_pose/strided_slice_4/stack_1", "op": "Const", "attr": {"dtype": {"type": "DT_INT32"}, "value": {"tensor": {"dtype": "DT_INT32", "tensorShape": {"dim": [{"size": "3"}]}}}}}, {"name": "pred_pose/strided_slice_4/stack_2", "op": "Const", "attr": {"dtype": {"type": "DT_INT32"}, "value": {"tensor": {"dtype": "DT_INT32", "tensorShape": {"dim": [{"size": "3"}]}}}}}, {"name": "pred_pose/add_4/x", "op": "Const", "attr": {"dtype": {"type": "DT_FLOAT"}, "value": {"tensor": {"dtype": "DT_FLOAT", "tensorShape": {}}}}}, {"name": "ssr_F_Cap_model/feat_slice_layer_2/strided_slice/stack", "op": "Const", "attr": {"dtype": {"type": "DT_INT32"}, "value": {"tensor": {"dtype": "DT_INT32", "tensorShape": {"dim": [{"size": "2"}]}}}}}, {"name": "ssr_F_Cap_model/feat_slice_layer_2/strided_slice/stack_1", "op": "Const", "attr": {"dtype": {"type": "DT_INT32"}, "value": {"tensor": {"dtype": "DT_INT32", "tensorShape": {"dim": [{"size": "2"}]}}}}}, {"name": "ssr_F_Cap_model/feat_slice_layer_2/strided_slice/stack_2", "op": "Const", "attr": {"dtype": {"type": "DT_INT32"}, "value": {"tensor": {"dtype": "DT_INT32", "tensorShape": {"dim": [{"size": "2"}]}}}}}, {"name": "local_delta_stage1/kernel", "op": "Const", "attr": {"value": {"tensor": {"dtype": "DT_FLOAT", "tensorShape": {"dim": [{"size": "4"}, {"size": "3"}]}}}, "dtype": {"type": "DT_FLOAT"}}}, {"name": "local_delta_stage1/bias", "op": "Const", "attr": {"dtype": {"type": "DT_FLOAT"}, "value": {"tensor": {"dtype": "DT_FLOAT", "tensorShape": {"dim": [{"size": "3"}]}}}}}, {"name": "pred_pose/strided_slice_5/stack", "op": "Const", "attr": {"dtype": {"type": "DT_INT32"}, "value": {"tensor": {"dtype": "DT_INT32", "tensorShape": {"dim": [{"size": "3"}]}}}}}, {"name": "pred_pose/strided_slice_5/stack_1", "op": "Const", "attr": {"value": {"tensor": {"dtype": "DT_INT32", "tensorShape": {"dim": [{"size": "3"}]}}}, "dtype": {"type": "DT_INT32"}}}, {"name": "pred_pose/strided_slice_5/stack_2", "op": "Const", "attr": {"value": {"tensor": {"dtype": "DT_INT32", "tensorShape": {"dim": [{"size": "3"}]}}}, "dtype": {"type": "DT_INT32"}}}, {"name": "pred_pose/mul_7/x", "op": "Const", "attr": {"dtype": {"type": "DT_FLOAT"}, "value": {"tensor": {"dtype": "DT_FLOAT", "tensorShape": {}}}}}, {"name": "pred_pose/add_6/x", "op": "Const", "attr": {"value": {"tensor": {"dtype": "DT_FLOAT", "tensorShape": {}}}, "dtype": {"type": "DT_FLOAT"}}}, {"name": "pred_pose/strided_slice_1/stack", "op": "Const", "attr": {"dtype": {"type": "DT_INT32"}, "value": {"tensor": {"dtype": "DT_INT32", "tensorShape": {"dim": [{"size": "3"}]}}}}}, {"name": "pred_pose/strided_slice_1/stack_1", "op": "Const", "attr": {"dtype": {"type": "DT_INT32"}, "value": {"tensor": {"dtype": "DT_INT32", "tensorShape": {"dim": [{"size": "3"}]}}}}}, {"name": "pred_pose/strided_slice_1/stack_2", "op": "Const", "attr": {"value": {"tensor": {"dtype": "DT_INT32", "tensorShape": {"dim": [{"size": "3"}]}}}, "dtype": {"type": "DT_INT32"}}}, {"name": "pred_pose/mul_1/y", "op": "Const", "attr": {"value": {"tensor": {"dtype": "DT_FLOAT", "tensorShape": {}}}, "dtype": {"type": "DT_FLOAT"}}}, {"name": "pred_pose/add_7/x", "op": "Const", "attr": {"dtype": {"type": "DT_FLOAT"}, "value": {"tensor": {"dtype": "DT_FLOAT", "tensorShape": {}}}}}, {"name": "pred_pose/strided_slice_6/stack", "op": "Const", "attr": {"dtype": {"type": "DT_INT32"}, "value": {"tensor": {"dtype": "DT_INT32", "tensorShape": {"dim": [{"size": "3"}]}}}}}, {"name": "pred_pose/strided_slice_6/stack_1", "op": "Const", "attr": {"value": {"tensor": {"dtype": "DT_INT32", "tensorShape": {"dim": [{"size": "3"}]}}}, "dtype": {"type": "DT_INT32"}}}, {"name": "pred_pose/strided_slice_6/stack_2", "op": "Const", "attr": {"value": {"tensor": {"dtype": "DT_INT32", "tensorShape": {"dim": [{"size": "3"}]}}}, "dtype": {"type": "DT_INT32"}}}, {"name": "pred_pose/strided_slice_7/stack", "op": "Const", "attr": {"value": {"tensor": {"dtype": "DT_INT32", "tensorShape": {"dim": [{"size": "3"}]}}}, "dtype": {"type": "DT_INT32"}}}, {"name": "pred_pose/strided_slice_7/stack_1", "op": "Const", "attr": {"dtype": {"type": "DT_INT32"}, "value": {"tensor": {"dtype": "DT_INT32", "tensorShape": {"dim": [{"size": "3"}]}}}}}, {"name": "pred_pose/strided_slice_7/stack_2", "op": "Const", "attr": {"value": {"tensor": {"dtype": "DT_INT32", "tensorShape": {"dim": [{"size": "3"}]}}}, "dtype": {"type": "DT_INT32"}}}, {"name": "pred_pose/add_11/x", "op": "Const", "attr": {"value": {"tensor": {"dtype": "DT_FLOAT", "tensorShape": {}}}, "dtype": {"type": "DT_FLOAT"}}}, {"name": "ssr_F_Cap_model/feat_slice_layer_5/strided_slice/stack", "op": "Const", "attr": {"value": {"tensor": {"dtype": "DT_INT32", "tensorShape": {"dim": [{"size": "2"}]}}}, "dtype": {"type": "DT_INT32"}}}, {"name": "ssr_F_Cap_model/feat_slice_layer_5/strided_slice/stack_1", "op": "Const", "attr": {"value": {"tensor": {"dtype": "DT_INT32", "tensorShape": {"dim": [{"size": "2"}]}}}, "dtype": {"type": "DT_INT32"}}}, {"name": "ssr_F_Cap_model/feat_slice_layer_5/strided_slice/stack_2", "op": "Const", "attr": {"dtype": {"type": "DT_INT32"}, "value": {"tensor": {"dtype": "DT_INT32", "tensorShape": {"dim": [{"size": "2"}]}}}}}, {"name": "local_delta_stage2/kernel", "op": "Const", "attr": {"value": {"tensor": {"dtype": "DT_FLOAT", "tensorShape": {"dim": [{"size": "4"}, {"size": "3"}]}}}, "dtype": {"type": "DT_FLOAT"}}}, {"name": "local_delta_stage2/bias", "op": "Const", "attr": {"dtype": {"type": "DT_FLOAT"}, "value": {"tensor": {"dtype": "DT_FLOAT", "tensorShape": {"dim": [{"size": "3"}]}}}}}, {"name": "ssr_F_Cap_model/feat_slice_layer_6/strided_slice/stack", "op": "Const", "attr": {"dtype": {"type": "DT_INT32"}, "value": {"tensor": {"dtype": "DT_INT32", "tensorShape": {"dim": [{"size": "2"}]}}}}}, {"name": "ssr_F_Cap_model/feat_slice_layer_6/strided_slice/stack_1", "op": "Const", "attr": {"dtype": {"type": "DT_INT32"}, "value": {"tensor": {"dtype": "DT_INT32", "tensorShape": {"dim": [{"size": "2"}]}}}}}, {"name": "ssr_F_Cap_model/feat_slice_layer_6/strided_slice/stack_2", "op": "Const", "attr": {"value": {"tensor": {"dtype": "DT_INT32", "tensorShape": {"dim": [{"size": "2"}]}}}, "dtype": {"type": "DT_INT32"}}}, {"name": "dense_4/kernel", "op": "Const", "attr": {"value": {"tensor": {"dtype": "DT_FLOAT", "tensorShape": {"dim": [{"size": "8"}, {"size": "9"}]}}}, "dtype": {"type": "DT_FLOAT"}}}, {"name": "dense_4/bias", "op": "Const", "attr": {"dtype": {"type": "DT_FLOAT"}, "value": {"tensor": {"dtype": "DT_FLOAT", "tensorShape": {"dim": [{"size": "9"}]}}}}}, {"name": "ssr_F_Cap_model/reshape_11/strided_slice/stack", "op": "Const", "attr": {"value": {"tensor": {"dtype": "DT_INT32", "tensorShape": {"dim": [{"size": "1"}]}}}, "dtype": {"type": "DT_INT32"}}}, {"name": "ssr_F_Cap_model/reshape_11/strided_slice/stack_1", "op": "Const", "attr": {"value": {"tensor": {"dtype": "DT_INT32", "tensorShape": {"dim": [{"size": "1"}]}}}, "dtype": {"type": "DT_INT32"}}}, {"name": "ssr_F_Cap_model/reshape_11/strided_slice/stack_2", "op": "Const", "attr": {"value": {"tensor": {"dtype": "DT_INT32", "tensorShape": {"dim": [{"size": "1"}]}}}, "dtype": {"type": "DT_INT32"}}}, {"name": "ssr_F_Cap_model/reshape_11/Reshape/shape/1", "op": "Const", "attr": {"value": {"tensor": {"dtype": "DT_INT32", "tensorShape": {}}}, "dtype": {"type": "DT_INT32"}}}, {"name": "ssr_F_Cap_model/reshape_11/Reshape/shape/2", "op": "Const", "attr": {"value": {"tensor": {"dtype": "DT_INT32", "tensorShape": {}}}, "dtype": {"type": "DT_INT32"}}}, {"name": "pred_pose/strided_slice_8/stack", "op": "Const", "attr": {"value": {"tensor": {"dtype": "DT_INT32", "tensorShape": {"dim": [{"size": "3"}]}}}, "dtype": {"type": "DT_INT32"}}}, {"name": "pred_pose/strided_slice_8/stack_1", "op": "Const", "attr": {"dtype": {"type": "DT_INT32"}, "value": {"tensor": {"dtype": "DT_INT32", "tensorShape": {"dim": [{"size": "3"}]}}}}}, {"name": "pred_pose/strided_slice_8/stack_2", "op": "Const", "attr": {"value": {"tensor": {"dtype": "DT_INT32", "tensorShape": {"dim": [{"size": "3"}]}}}, "dtype": {"type": "DT_INT32"}}}, {"name": "pred_pose/mul_12/x", "op": "Const", "attr": {"dtype": {"type": "DT_FLOAT"}, "value": {"tensor": {"dtype": "DT_FLOAT", "tensorShape": {}}}}}, {"name": "pred_pose/add_13/x", "op": "Const", "attr": {"dtype": {"type": "DT_FLOAT"}, "value": {"tensor": {"dtype": "DT_FLOAT", "tensorShape": {}}}}}, {"name": "pred_pose/mul_14/x", "op": "Const", "attr": {"dtype": {"type": "DT_FLOAT"}, "value": {"tensor": {"dtype": "DT_FLOAT", "tensorShape": {}}}}}, {"name": "pred_pose/add_14/x", "op": "Const", "attr": {"value": {"tensor": {"dtype": "DT_FLOAT", "tensorShape": {}}}, "dtype": {"type": "DT_FLOAT"}}}, {"name": "ssr_F_Cap_model/feat_slice_layer_3/strided_slice/stack", "op": "Const", "attr": {"value": {"tensor": {"dtype": "DT_INT32", "tensorShape": {"dim": [{"size": "2"}]}}}, "dtype": {"type": "DT_INT32"}}}, {"name": "ssr_F_Cap_model/feat_slice_layer_3/strided_slice/stack_1", "op": "Const", "attr": {"value": {"tensor": {"dtype": "DT_INT32", "tensorShape": {"dim": [{"size": "2"}]}}}, "dtype": {"type": "DT_INT32"}}}, {"name": "ssr_F_Cap_model/feat_slice_layer_3/strided_slice/stack_2", "op": "Const", "attr": {"dtype": {"type": "DT_INT32"}, "value": {"tensor": {"dtype": "DT_INT32", "tensorShape": {"dim": [{"size": "2"}]}}}}}, {"name": "dense_3/kernel", "op": "Const", "attr": {"value": {"tensor": {"dtype": "DT_FLOAT", "tensorShape": {"dim": [{"size": "8"}, {"size": "9"}]}}}, "dtype": {"type": "DT_FLOAT"}}}, {"name": "dense_3/bias", "op": "Const", "attr": {"value": {"tensor": {"dtype": "DT_FLOAT", "tensorShape": {"dim": [{"size": "9"}]}}}, "dtype": {"type": "DT_FLOAT"}}}, {"name": "ssr_F_Cap_model/reshape_10/strided_slice/stack", "op": "Const", "attr": {"value": {"tensor": {"dtype": "DT_INT32", "tensorShape": {"dim": [{"size": "1"}]}}}, "dtype": {"type": "DT_INT32"}}}, {"name": "ssr_F_Cap_model/reshape_10/strided_slice/stack_1", "op": "Const", "attr": {"dtype": {"type": "DT_INT32"}, "value": {"tensor": {"dtype": "DT_INT32", "tensorShape": {"dim": [{"size": "1"}]}}}}}, {"name": "ssr_F_Cap_model/reshape_10/strided_slice/stack_2", "op": "Const", "attr": {"value": {"tensor": {"dtype": "DT_INT32", "tensorShape": {"dim": [{"size": "1"}]}}}, "dtype": {"type": "DT_INT32"}}}, {"name": "ssr_F_Cap_model/reshape_10/Reshape/shape/1", "op": "Const", "attr": {"value": {"tensor": {"dtype": "DT_INT32", "tensorShape": {}}}, "dtype": {"type": "DT_INT32"}}}, {"name": "ssr_F_Cap_model/reshape_10/Reshape/shape/2", "op": "Const", "attr": {"value": {"tensor": {"dtype": "DT_INT32", "tensorShape": {}}}, "dtype": {"type": "DT_INT32"}}}, {"name": "pred_pose/strided_slice_2/stack", "op": "Const", "attr": {"value": {"tensor": {"dtype": "DT_INT32", "tensorShape": {"dim": [{"size": "3"}]}}}, "dtype": {"type": "DT_INT32"}}}, {"name": "pred_pose/strided_slice_2/stack_1", "op": "Const", "attr": {"value": {"tensor": {"dtype": "DT_INT32", "tensorShape": {"dim": [{"size": "3"}]}}}, "dtype": {"type": "DT_INT32"}}}, {"name": "pred_pose/strided_slice_2/stack_2", "op": "Const", "attr": {"dtype": {"type": "DT_INT32"}, "value": {"tensor": {"dtype": "DT_INT32", "tensorShape": {"dim": [{"size": "3"}]}}}}}, {"name": "pred_pose/mul_2/y", "op": "Const", "attr": {"value": {"tensor": {"dtype": "DT_FLOAT", "tensorShape": {}}}, "dtype": {"type": "DT_FLOAT"}}}, {"name": "pred_pose/add_15/x", "op": "Const", "attr": {"value": {"tensor": {"dtype": "DT_FLOAT", "tensorShape": {}}}, "dtype": {"type": "DT_FLOAT"}}}, {"name": "pred_pose/strided_slice_9/stack", "op": "Const", "attr": {"value": {"tensor": {"dtype": "DT_INT32", "tensorShape": {"dim": [{"size": "3"}]}}}, "dtype": {"type": "DT_INT32"}}}, {"name": "pred_pose/strided_slice_9/stack_1", "op": "Const", "attr": {"value": {"tensor": {"dtype": "DT_INT32", "tensorShape": {"dim": [{"size": "3"}]}}}, "dtype": {"type": "DT_INT32"}}}, {"name": "pred_pose/strided_slice_9/stack_2", "op": "Const", "attr": {"value": {"tensor": {"dtype": "DT_INT32", "tensorShape": {"dim": [{"size": "3"}]}}}, "dtype": {"type": "DT_INT32"}}}, {"name": "pred_pose/strided_slice_10/stack", "op": "Const", "attr": {"dtype": {"type": "DT_INT32"}, "value": {"tensor": {"dtype": "DT_INT32", "tensorShape": {"dim": [{"size": "3"}]}}}}}, {"name": "pred_pose/strided_slice_10/stack_1", "op": "Const", "attr": {"dtype": {"type": "DT_INT32"}, "value": {"tensor": {"dtype": "DT_INT32", "tensorShape": {"dim": [{"size": "3"}]}}}}}, {"name": "pred_pose/strided_slice_10/stack_2", "op": "Const", "attr": {"dtype": {"type": "DT_INT32"}, "value": {"tensor": {"dtype": "DT_INT32", "tensorShape": {"dim": [{"size": "3"}]}}}}}, {"name": "pred_pose/add_19/x", "op": "Const", "attr": {"value": {"tensor": {"dtype": "DT_FLOAT", "tensorShape": {}}}, "dtype": {"type": "DT_FLOAT"}}}, {"name": "ssr_F_Cap_model/feat_slice_layer_8/strided_slice/stack", "op": "Const", "attr": {"dtype": {"type": "DT_INT32"}, "value": {"tensor": {"dtype": "DT_INT32", "tensorShape": {"dim": [{"size": "2"}]}}}}}, {"name": "ssr_F_Cap_model/feat_slice_layer_8/strided_slice/stack_1", "op": "Const", "attr": {"dtype": {"type": "DT_INT32"}, "value": {"tensor": {"dtype": "DT_INT32", "tensorShape": {"dim": [{"size": "2"}]}}}}}, {"name": "ssr_F_Cap_model/feat_slice_layer_8/strided_slice/stack_2", "op": "Const", "attr": {"value": {"tensor": {"dtype": "DT_INT32", "tensorShape": {"dim": [{"size": "2"}]}}}, "dtype": {"type": "DT_INT32"}}}, {"name": "local_delta_stage3/kernel", "op": "Const", "attr": {"dtype": {"type": "DT_FLOAT"}, "value": {"tensor": {"dtype": "DT_FLOAT", "tensorShape": {"dim": [{"size": "4"}, {"size": "3"}]}}}}}, {"name": "local_delta_stage3/bias", "op": "Const", "attr": {"value": {"tensor": {"dtype": "DT_FLOAT", "tensorShape": {"dim": [{"size": "3"}]}}}, "dtype": {"type": "DT_FLOAT"}}}, {"name": "ssr_F_Cap_model/feat_slice_layer_9/strided_slice/stack", "op": "Const", "attr": {"dtype": {"type": "DT_INT32"}, "value": {"tensor": {"dtype": "DT_INT32", "tensorShape": {"dim": [{"size": "2"}]}}}}}, {"name": "ssr_F_Cap_model/feat_slice_layer_9/strided_slice/stack_1", "op": "Const", "attr": {"value": {"tensor": {"dtype": "DT_INT32", "tensorShape": {"dim": [{"size": "2"}]}}}, "dtype": {"type": "DT_INT32"}}}, {"name": "ssr_F_Cap_model/feat_slice_layer_9/strided_slice/stack_2", "op": "Const", "attr": {"value": {"tensor": {"dtype": "DT_INT32", "tensorShape": {"dim": [{"size": "2"}]}}}, "dtype": {"type": "DT_INT32"}}}, {"name": "dense_5/kernel", "op": "Const", "attr": {"dtype": {"type": "DT_FLOAT"}, "value": {"tensor": {"dtype": "DT_FLOAT", "tensorShape": {"dim": [{"size": "8"}, {"size": "9"}]}}}}}, {"name": "dense_5/bias", "op": "Const", "attr": {"dtype": {"type": "DT_FLOAT"}, "value": {"tensor": {"dtype": "DT_FLOAT", "tensorShape": {"dim": [{"size": "9"}]}}}}}, {"name": "ssr_F_Cap_model/reshape_12/strided_slice/stack", "op": "Const", "attr": {"value": {"tensor": {"dtype": "DT_INT32", "tensorShape": {"dim": [{"size": "1"}]}}}, "dtype": {"type": "DT_INT32"}}}, {"name": "ssr_F_Cap_model/reshape_12/strided_slice/stack_1", "op": "Const", "attr": {"value": {"tensor": {"dtype": "DT_INT32", "tensorShape": {"dim": [{"size": "1"}]}}}, "dtype": {"type": "DT_INT32"}}}, {"name": "ssr_F_Cap_model/reshape_12/strided_slice/stack_2", "op": "Const", "attr": {"value": {"tensor": {"dtype": "DT_INT32", "tensorShape": {"dim": [{"size": "1"}]}}}, "dtype": {"type": "DT_INT32"}}}, {"name": "ssr_F_Cap_model/reshape_12/Reshape/shape/1", "op": "Const", "attr": {"value": {"tensor": {"dtype": "DT_INT32", "tensorShape": {}}}, "dtype": {"type": "DT_INT32"}}}, {"name": "ssr_F_Cap_model/reshape_12/Reshape/shape/2", "op": "Const", "attr": {"value": {"tensor": {"dtype": "DT_INT32", "tensorShape": {}}}, "dtype": {"type": "DT_INT32"}}}, {"name": "pred_pose/strided_slice_11/stack", "op": "Const", "attr": {"dtype": {"type": "DT_INT32"}, "value": {"tensor": {"dtype": "DT_INT32", "tensorShape": {"dim": [{"size": "3"}]}}}}}, {"name": "pred_pose/strided_slice_11/stack_1", "op": "Const", "attr": {"value": {"tensor": {"dtype": "DT_INT32", "tensorShape": {"dim": [{"size": "3"}]}}}, "dtype": {"type": "DT_INT32"}}}, {"name": "pred_pose/strided_slice_11/stack_2", "op": "Const", "attr": {"value": {"tensor": {"dtype": "DT_INT32", "tensorShape": {"dim": [{"size": "3"}]}}}, "dtype": {"type": "DT_INT32"}}}, {"name": "pred_pose/mul_19/x", "op": "Const", "attr": {"value": {"tensor": {"dtype": "DT_FLOAT", "tensorShape": {}}}, "dtype": {"type": "DT_FLOAT"}}}, {"name": "pred_pose/add_21/x", "op": "Const", "attr": {"dtype": {"type": "DT_FLOAT"}, "value": {"tensor": {"dtype": "DT_FLOAT", "tensorShape": {}}}}}, {"name": "ssr_Cap_model/aggregated_feature_extraction_layer_1/strided_slice/stack", "op": "Const", "attr": {"value": {"tensor": {"dtype": "DT_INT32", "tensorShape": {"dim": [{"size": "3"}]}}}, "dtype": {"type": "DT_INT32"}}}, {"name": "ssr_Cap_model/aggregated_feature_extraction_layer_1/strided_slice/stack_1", "op": "Const", "attr": {"value": {"tensor": {"dtype": "DT_INT32", "tensorShape": {"dim": [{"size": "3"}]}}}, "dtype": {"type": "DT_INT32"}}}, {"name": "ssr_Cap_model/aggregated_feature_extraction_layer_1/strided_slice/stack_2", "op": "Const", "attr": {"dtype": {"type": "DT_INT32"}, "value": {"tensor": {"dtype": "DT_INT32", "tensorShape": {"dim": [{"size": "3"}]}}}}}, {"name": "ssr_Cap_model/reshape_7/strided_slice/stack", "op": "Const", "attr": {"dtype": {"type": "DT_INT32"}, "value": {"tensor": {"dtype": "DT_INT32", "tensorShape": {"dim": [{"size": "1"}]}}}}}, {"name": "ssr_Cap_model/reshape_7/strided_slice/stack_1", "op": "Const", "attr": {"value": {"tensor": {"dtype": "DT_INT32", "tensorShape": {"dim": [{"size": "1"}]}}}, "dtype": {"type": "DT_INT32"}}}, {"name": "ssr_Cap_model/reshape_7/strided_slice/stack_2", "op": "Const", "attr": {"value": {"tensor": {"dtype": "DT_INT32", "tensorShape": {"dim": [{"size": "1"}]}}}, "dtype": {"type": "DT_INT32"}}}, {"name": "ssr_Cap_model/reshape_7/Reshape/shape/1", "op": "Const", "attr": {"dtype": {"type": "DT_INT32"}, "value": {"tensor": {"dtype": "DT_INT32", "tensorShape": {}}}}}, {"name": "ssr_F_Cap_model/feat_slice_layer_1/strided_slice/stack", "op": "Const", "attr": {"dtype": {"type": "DT_INT32"}, "value": {"tensor": {"dtype": "DT_INT32", "tensorShape": {"dim": [{"size": "2"}]}}}}}, {"name": "ssr_F_Cap_model/feat_slice_layer_1/strided_slice/stack_1", "op": "Const", "attr": {"dtype": {"type": "DT_INT32"}, "value": {"tensor": {"dtype": "DT_INT32", "tensorShape": {"dim": [{"size": "2"}]}}}}}, {"name": "ssr_F_Cap_model/feat_slice_layer_1/strided_slice/stack_2", "op": "Const", "attr": {"dtype": {"type": "DT_INT32"}, "value": {"tensor": {"dtype": "DT_INT32", "tensorShape": {"dim": [{"size": "2"}]}}}}}, {"name": "delta_s1/kernel", "op": "Const", "attr": {"value": {"tensor": {"dtype": "DT_FLOAT", "tensorShape": {"dim": [{"size": "4"}, {"size": "3"}]}}}, "dtype": {"type": "DT_FLOAT"}}}, {"name": "delta_s1/bias", "op": "Const", "attr": {"dtype": {"type": "DT_FLOAT"}, "value": {"tensor": {"dtype": "DT_FLOAT", "tensorShape": {"dim": [{"size": "3"}]}}}}}, {"name": "pred_pose/mul_21/x", "op": "Const", "attr": {"dtype": {"type": "DT_FLOAT"}, "value": {"tensor": {"dtype": "DT_FLOAT", "tensorShape": {}}}}}, {"name": "pred_pose/add_22/x", "op": "Const", "attr": {"dtype": {"type": "DT_FLOAT"}, "value": {"tensor": {"dtype": "DT_FLOAT", "tensorShape": {}}}}}, {"name": "ssr_Cap_model/aggregated_feature_extraction_layer_1/strided_slice_1/stack", "op": "Const", "attr": {"dtype": {"type": "DT_INT32"}, "value": {"tensor": {"dtype": "DT_INT32", "tensorShape": {"dim": [{"size": "3"}]}}}}}, {"name": "ssr_Cap_model/aggregated_feature_extraction_layer_1/strided_slice_1/stack_1", "op": "Const", "attr": {"dtype": {"type": "DT_INT32"}, "value": {"tensor": {"dtype": "DT_INT32", "tensorShape": {"dim": [{"size": "3"}]}}}}}, {"name": "ssr_Cap_model/aggregated_feature_extraction_layer_1/strided_slice_1/stack_2", "op": "Const", "attr": {"dtype": {"type": "DT_INT32"}, "value": {"tensor": {"dtype": "DT_INT32", "tensorShape": {"dim": [{"size": "3"}]}}}}}, {"name": "ssr_Cap_model/reshape_8/strided_slice/stack", "op": "Const", "attr": {"dtype": {"type": "DT_INT32"}, "value": {"tensor": {"dtype": "DT_INT32", "tensorShape": {"dim": [{"size": "1"}]}}}}}, {"name": "ssr_Cap_model/reshape_8/strided_slice/stack_1", "op": "Const", "attr": {"dtype": {"type": "DT_INT32"}, "value": {"tensor": {"dtype": "DT_INT32", "tensorShape": {"dim": [{"size": "1"}]}}}}}, {"name": "ssr_Cap_model/reshape_8/strided_slice/stack_2", "op": "Const", "attr": {"value": {"tensor": {"dtype": "DT_INT32", "tensorShape": {"dim": [{"size": "1"}]}}}, "dtype": {"type": "DT_INT32"}}}, {"name": "ssr_Cap_model/reshape_8/Reshape/shape/1", "op": "Const", "attr": {"dtype": {"type": "DT_INT32"}, "value": {"tensor": {"dtype": "DT_INT32", "tensorShape": {}}}}}, {"name": "ssr_F_Cap_model/feat_slice_layer_4/strided_slice/stack", "op": "Const", "attr": {"dtype": {"type": "DT_INT32"}, "value": {"tensor": {"dtype": "DT_INT32", "tensorShape": {"dim": [{"size": "2"}]}}}}}, {"name": "ssr_F_Cap_model/feat_slice_layer_4/strided_slice/stack_1", "op": "Const", "attr": {"dtype": {"type": "DT_INT32"}, "value": {"tensor": {"dtype": "DT_INT32", "tensorShape": {"dim": [{"size": "2"}]}}}}}, {"name": "ssr_F_Cap_model/feat_slice_layer_4/strided_slice/stack_2", "op": "Const", "attr": {"value": {"tensor": {"dtype": "DT_INT32", "tensorShape": {"dim": [{"size": "2"}]}}}, "dtype": {"type": "DT_INT32"}}}, {"name": "delta_s2/kernel", "op": "Const", "attr": {"dtype": {"type": "DT_FLOAT"}, "value": {"tensor": {"dtype": "DT_FLOAT", "tensorShape": {"dim": [{"size": "4"}, {"size": "3"}]}}}}}, {"name": "delta_s2/bias", "op": "Const", "attr": {"dtype": {"type": "DT_FLOAT"}, "value": {"tensor": {"dtype": "DT_FLOAT", "tensorShape": {"dim": [{"size": "3"}]}}}}}, {"name": "pred_pose/mul_23/x", "op": "Const", "attr": {"dtype": {"type": "DT_FLOAT"}, "value": {"tensor": {"dtype": "DT_FLOAT", "tensorShape": {}}}}}, {"name": "pred_pose/add_23/x", "op": "Const", "attr": {"dtype": {"type": "DT_FLOAT"}, "value": {"tensor": {"dtype": "DT_FLOAT", "tensorShape": {}}}}}, {"name": "ssr_Cap_model/caps/add_3/x", "op": "Const", "attr": {"dtype": {"type": "DT_FLOAT"}, "value": {"tensor": {"dtype": "DT_FLOAT", "tensorShape": {}}}}}, {"name": "ssr_Cap_model/caps/Sum_1/reduction_indices", "op": "Const", "attr": {"value": {"tensor": {"dtype": "DT_INT32", "tensorShape": {}}}, "dtype": {"type": "DT_INT32"}}}, {"name": "ssr_Cap_model/caps/add_4/y", "op": "Const", "attr": {"value": {"tensor": {"dtype": "DT_FLOAT", "tensorShape": {}}}, "dtype": {"type": "DT_FLOAT"}}}, {"name": "ssr_Cap_model/caps/Const_3", "op": "Const", "attr": {"dtype": {"type": "DT_FLOAT"}, "value": {"tensor": {"dtype": "DT_FLOAT", "tensorShape": {}}}}}, {"name": "ssr_Cap_model/caps/Const_2", "op": "Const", "attr": {"value": {"tensor": {"dtype": "DT_FLOAT", "tensorShape": {}}}, "dtype": {"type": "DT_FLOAT"}}}, {"name": "ssr_Cap_model/caps/add/x", "op": "Const", "attr": {"value": {"tensor": {"dtype": "DT_FLOAT", "tensorShape": {}}}, "dtype": {"type": "DT_FLOAT"}}}, {"name": "ssr_Cap_model/caps/Sum/reduction_indices", "op": "Const", "attr": {"dtype": {"type": "DT_INT32"}, "value": {"tensor": {"dtype": "DT_INT32", "tensorShape": {}}}}}, {"name": "ssr_Cap_model/caps/add_1/y", "op": "Const", "attr": {"value": {"tensor": {"dtype": "DT_FLOAT", "tensorShape": {}}}, "dtype": {"type": "DT_FLOAT"}}}, {"name": "ssr_Cap_model/caps/Const_1", "op": "Const", "attr": {"dtype": {"type": "DT_FLOAT"}, "value": {"tensor": {"dtype": "DT_FLOAT", "tensorShape": {}}}}}, {"name": "ssr_Cap_model/caps/Const", "op": "Const", "attr": {"value": {"tensor": {"dtype": "DT_FLOAT", "tensorShape": {}}}, "dtype": {"type": "DT_FLOAT"}}}, {"name": "ssr_Cap_model/caps/strided_slice/stack", "op": "Const", "attr": {"value": {"tensor": {"dtype": "DT_INT32", "tensorShape": {"dim": [{"size": "1"}]}}}, "dtype": {"type": "DT_INT32"}}}, {"name": "ssr_Cap_model/caps/strided_slice/stack_1", "op": "Const", "attr": {"value": {"tensor": {"dtype": "DT_INT32", "tensorShape": {"dim": [{"size": "1"}]}}}, "dtype": {"type": "DT_INT32"}}}, {"name": "ssr_Cap_model/caps/strided_slice/stack_2", "op": "Const", "attr": {"value": {"tensor": {"dtype": "DT_INT32", "tensorShape": {"dim": [{"size": "1"}]}}}, "dtype": {"type": "DT_INT32"}}}, {"name": "ssr_Cap_model/caps/zeros/packed/1", "op": "Const", "attr": {"dtype": {"type": "DT_INT32"}, "value": {"tensor": {"dtype": "DT_INT32", "tensorShape": {}}}}}, {"name": "ssr_Cap_model/caps/zeros/packed/2", "op": "Const", "attr": {"dtype": {"type": "DT_INT32"}, "value": {"tensor": {"dtype": "DT_INT32", "tensorShape": {}}}}}, {"name": "ssr_Cap_model/caps/zeros/Const", "op": "Const", "attr": {"value": {"tensor": {"dtype": "DT_FLOAT", "tensorShape": {}}}, "dtype": {"type": "DT_FLOAT"}}}, {"name": "ssr_Cap_model/caps/concat", "op": "Const", "attr": {"dtype": {"type": "DT_INT32"}, "value": {"tensor": {"dtype": "DT_INT32", "tensorShape": {"dim": [{"size": "3"}]}}}}}, {"name": "ssr_Cap_model/caps/concat_1", "op": "Const", "attr": {"value": {"tensor": {"dtype": "DT_INT32", "tensorShape": {"dim": [{"size": "3"}]}}}, "dtype": {"type": "DT_INT32"}}}, {"name": "ssr_Cap_model/caps/concat_2/values_1", "op": "Const", "attr": {"dtype": {"type": "DT_INT32"}, "value": {"tensor": {"dtype": "DT_INT32", "tensorShape": {"dim": [{"size": "1"}]}}}}}, {"name": "ssr_Cap_model/caps/concat_2/axis", "op": "Const", "attr": {"value": {"tensor": {"dtype": "DT_INT32", "tensorShape": {}}}, "dtype": {"type": "DT_INT32"}}}, {"name": "ssr_Cap_model/caps/concat_3/values_1", "op": "Const", "attr": {"dtype": {"type": "DT_INT32"}, "value": {"tensor": {"dtype": "DT_INT32", "tensorShape": {"dim": [{"size": "1"}]}}}}}, {"name": "ssr_Cap_model/caps/concat_3/axis", "op": "Const", "attr": {"dtype": {"type": "DT_INT32"}, "value": {"tensor": {"dtype": "DT_INT32", "tensorShape": {}}}}}, {"name": "ssr_Cap_model/caps/concat_4", "op": "Const", "attr": {"value": {"tensor": {"dtype": "DT_INT32", "tensorShape": {"dim": [{"size": "3"}]}}}, "dtype": {"type": "DT_INT32"}}}, {"name": "ssr_Cap_model/caps/concat_5", "op": "Const", "attr": {"dtype": {"type": "DT_INT32"}, "value": {"tensor": {"dtype": "DT_INT32", "tensorShape": {"dim": [{"size": "3"}]}}}}}, {"name": "ssr_Cap_model/caps/concat_6/values_1", "op": "Const", "attr": {"dtype": {"type": "DT_INT32"}, "value": {"tensor": {"dtype": "DT_INT32", "tensorShape": {"dim": [{"size": "1"}]}}}}}, {"name": "ssr_Cap_model/caps/concat_6/axis", "op": "Const", "attr": {"value": {"tensor": {"dtype": "DT_INT32", "tensorShape": {}}}, "dtype": {"type": "DT_INT32"}}}, {"name": "ssr_Cap_model/caps/map/TensorArrayStack/range/start", "op": "Const", "attr": {"value": {"tensor": {"dtype": "DT_INT32", "tensorShape": {}}}, "dtype": {"type": "DT_INT32"}}}, {"name": "ssr_Cap_model/caps/map/TensorArrayStack/range/delta", "op": "Const", "attr": {"value": {"tensor": {"dtype": "DT_INT32", "tensorShape": {}}}, "dtype": {"type": "DT_INT32"}}}, {"name": "ssr_Cap_model/caps/map/TensorArrayUnstack/range/start", "op": "Const", "attr": {"value": {"tensor": {"dtype": "DT_INT32", "tensorShape": {}}}, "dtype": {"type": "DT_INT32"}}}, {"name": "ssr_Cap_model/caps/map/TensorArrayUnstack/strided_slice/stack", "op": "Const", "attr": {"dtype": {"type": "DT_INT32"}, "value": {"tensor": {"dtype": "DT_INT32", "tensorShape": {"dim": [{"size": "1"}]}}}}}, {"name": "ssr_Cap_model/caps/map/TensorArrayUnstack/strided_slice/stack_1", "op": "Const", "attr": {"value": {"tensor": {"dtype": "DT_INT32", "tensorShape": {"dim": [{"size": "1"}]}}}, "dtype": {"type": "DT_INT32"}}}, {"name": "ssr_Cap_model/caps/map/TensorArrayUnstack/strided_slice/stack_2", "op": "Const", "attr": {"dtype": {"type": "DT_INT32"}, "value": {"tensor": {"dtype": "DT_INT32", "tensorShape": {"dim": [{"size": "1"}]}}}}}, {"name": "ssr_Cap_model/caps/map/TensorArrayUnstack/range/delta", "op": "Const", "attr": {"value": {"tensor": {"dtype": "DT_INT32", "tensorShape": {}}}, "dtype": {"type": "DT_INT32"}}}, {"name": "caps/W", "op": "Const", "attr": {"value": {"tensor": {"dtype": "DT_FLOAT", "tensorShape": {"dim": [{"size": "3"}, {"size": "21"}, {"size": "16"}, {"size": "64"}]}}}, "dtype": {"type": "DT_FLOAT"}}}, {"name": "ssr_Cap_model/caps/map/Const", "op": "Const", "attr": {"value": {"tensor": {"dtype": "DT_INT32", "tensorShape": {}}}, "dtype": {"type": "DT_INT32"}}}, {"name": "ssr_Cap_model/caps/map/while/iteration_counter", "op": "Const", "attr": {"dtype": {"type": "DT_INT32"}, "value": {"tensor": {"dtype": "DT_INT32", "tensorShape": {}}}}}, {"name": "ssr_S_model/feat_S_model_2/reshape_2/strided_slice/stack", "op": "Const", "attr": {"dtype": {"type": "DT_INT32"}, "value": {"tensor": {"dtype": "DT_INT32", "tensorShape": {"dim": [{"size": "1"}]}}}}}, {"name": "ssr_S_model/feat_S_model_2/reshape_2/strided_slice/stack_1", "op": "Const", "attr": {"dtype": {"type": "DT_INT32"}, "value": {"tensor": {"dtype": "DT_INT32", "tensorShape": {"dim": [{"size": "1"}]}}}}}, {"name": "ssr_S_model/feat_S_model_2/reshape_2/strided_slice/stack_2", "op": "Const", "attr": {"value": {"tensor": {"dtype": "DT_INT32", "tensorShape": {"dim": [{"size": "1"}]}}}, "dtype": {"type": "DT_INT32"}}}, {"name": "ssr_S_model/feat_S_model_2/reshape_2/Reshape/shape/1", "op": "Const", "attr": {"dtype": {"type": "DT_INT32"}, "value": {"tensor": {"dtype": "DT_INT32", "tensorShape": {}}}}}, {"name": "ssr_S_model/feat_S_model_2/reshape_2/Reshape/shape/2", "op": "Const", "attr": {"dtype": {"type": "DT_INT32"}, "value": {"tensor": {"dtype": "DT_INT32", "tensorShape": {}}}}}, {"name": "ssr_S_model/matrix_norm_layer_1/Sum/reduction_indices", "op": "Const", "attr": {"value": {"tensor": {"dtype": "DT_INT32", "tensorShape": {}}}, "dtype": {"type": "DT_INT32"}}}, {"name": "ssr_S_model/matrix_norm_layer_1/Tile/multiples", "op": "Const", "attr": {"value": {"tensor": {"dtype": "DT_INT32", "tensorShape": {"dim": [{"size": "3"}]}}}, "dtype": {"type": "DT_INT32"}}}, {"name": "ssr_S_model/feat_S_model_1/reshape_2/strided_slice/stack", "op": "Const", "attr": {"dtype": {"type": "DT_INT32"}, "value": {"tensor": {"dtype": "DT_INT32", "tensorShape": {"dim": [{"size": "1"}]}}}}}, {"name": "ssr_S_model/feat_S_model_1/reshape_2/strided_slice/stack_1", "op": "Const", "attr": {"dtype": {"type": "DT_INT32"}, "value": {"tensor": {"dtype": "DT_INT32", "tensorShape": {"dim": [{"size": "1"}]}}}}}, {"name": "ssr_S_model/feat_S_model_1/reshape_2/strided_slice/stack_2", "op": "Const", "attr": {"dtype": {"type": "DT_INT32"}, "value": {"tensor": {"dtype": "DT_INT32", "tensorShape": {"dim": [{"size": "1"}]}}}}}, {"name": "ssr_S_model/feat_S_model_1/reshape_2/Reshape/shape/1", "op": "Const", "attr": {"dtype": {"type": "DT_INT32"}, "value": {"tensor": {"dtype": "DT_INT32", "tensorShape": {}}}}}, {"name": "ssr_S_model/feat_S_model_1/reshape_2/Reshape/shape/2", "op": "Const", "attr": {"value": {"tensor": {"dtype": "DT_INT32", "tensorShape": {}}}, "dtype": {"type": "DT_INT32"}}}, {"name": "ssr_S_model/matrix_norm_layer_2/Sum/reduction_indices", "op": "Const", "attr": {"dtype": {"type": "DT_INT32"}, "value": {"tensor": {"dtype": "DT_INT32", "tensorShape": {}}}}}, {"name": "ssr_S_model/matrix_norm_layer_2/Tile/multiples", "op": "Const", "attr": {"dtype": {"type": "DT_INT32"}, "value": {"tensor": {"dtype": "DT_INT32", "tensorShape": {"dim": [{"size": "3"}]}}}}}, {"name": "ssr_S_model/reshape_4/strided_slice/stack", "op": "Const", "attr": {"value": {"tensor": {"dtype": "DT_INT32", "tensorShape": {"dim": [{"size": "1"}]}}}, "dtype": {"type": "DT_INT32"}}}, {"name": "ssr_S_model/reshape_4/strided_slice/stack_1", "op": "Const", "attr": {"value": {"tensor": {"dtype": "DT_INT32", "tensorShape": {"dim": [{"size": "1"}]}}}, "dtype": {"type": "DT_INT32"}}}, {"name": "ssr_S_model/reshape_4/strided_slice/stack_2", "op": "Const", "attr": {"dtype": {"type": "DT_INT32"}, "value": {"tensor": {"dtype": "DT_INT32", "tensorShape": {"dim": [{"size": "1"}]}}}}}, {"name": "ssr_S_model/reshape_4/Reshape/shape/1", "op": "Const", "attr": {"value": {"tensor": {"dtype": "DT_INT32", "tensorShape": {}}}, "dtype": {"type": "DT_INT32"}}}, {"name": "ssr_S_model/reshape_4/Reshape/shape/2", "op": "Const", "attr": {"dtype": {"type": "DT_INT32"}, "value": {"tensor": {"dtype": "DT_INT32", "tensorShape": {}}}}}, {"name": "ssr_S_model/reshape_5/strided_slice/stack", "op": "Const", "attr": {"value": {"tensor": {"dtype": "DT_INT32", "tensorShape": {"dim": [{"size": "1"}]}}}, "dtype": {"type": "DT_INT32"}}}, {"name": "ssr_S_model/reshape_5/strided_slice/stack_1", "op": "Const", "attr": {"value": {"tensor": {"dtype": "DT_INT32", "tensorShape": {"dim": [{"size": "1"}]}}}, "dtype": {"type": "DT_INT32"}}}, {"name": "ssr_S_model/reshape_5/strided_slice/stack_2", "op": "Const", "attr": {"dtype": {"type": "DT_INT32"}, "value": {"tensor": {"dtype": "DT_INT32", "tensorShape": {"dim": [{"size": "1"}]}}}}}, {"name": "ssr_S_model/reshape_5/Reshape/shape/1", "op": "Const", "attr": {"dtype": {"type": "DT_INT32"}, "value": {"tensor": {"dtype": "DT_INT32", "tensorShape": {}}}}}, {"name": "ssr_S_model/reshape_5/Reshape/shape/2", "op": "Const", "attr": {"dtype": {"type": "DT_INT32"}, "value": {"tensor": {"dtype": "DT_INT32", "tensorShape": {}}}}}, {"name": "ssr_S_model/reshape_6/strided_slice/stack", "op": "Const", "attr": {"value": {"tensor": {"dtype": "DT_INT32", "tensorShape": {"dim": [{"size": "1"}]}}}, "dtype": {"type": "DT_INT32"}}}, {"name": "ssr_S_model/reshape_6/strided_slice/stack_1", "op": "Const", "attr": {"value": {"tensor": {"dtype": "DT_INT32", "tensorShape": {"dim": [{"size": "1"}]}}}, "dtype": {"type": "DT_INT32"}}}, {"name": "ssr_S_model/reshape_6/strided_slice/stack_2", "op": "Const", "attr": {"value": {"tensor": {"dtype": "DT_INT32", "tensorShape": {"dim": [{"size": "1"}]}}}, "dtype": {"type": "DT_INT32"}}}, {"name": "ssr_S_model/reshape_6/Reshape/shape/1", "op": "Const", "attr": {"value": {"tensor": {"dtype": "DT_INT32", "tensorShape": {}}}, "dtype": {"type": "DT_INT32"}}}, {"name": "ssr_S_model/reshape_6/Reshape/shape/2", "op": "Const", "attr": {"value": {"tensor": {"dtype": "DT_INT32", "tensorShape": {}}}, "dtype": {"type": "DT_INT32"}}}, {"name": "ssr_S_model/concatenate_2/concat/axis", "op": "Const", "attr": {"dtype": {"type": "DT_INT32"}, "value": {"tensor": {"dtype": "DT_INT32", "tensorShape": {}}}}}, {"name": "separable_conv2d_13/depthwise_kernel", "op": "Const", "attr": {"dtype": {"type": "DT_FLOAT"}, "value": {"tensor": {"dtype": "DT_FLOAT", "tensorShape": {"dim": [{"size": "3"}, {"size": "3"}, {"size": "64"}, {"size": "1"}]}}}}}, {"name": "separable_conv2d_14/depthwise_kernel", "op": "Const", "attr": {"value": {"tensor": {"dtype": "DT_FLOAT", "tensorShape": {"dim": [{"size": "3"}, {"size": "3"}, {"size": "128"}, {"size": "1"}]}}}, "dtype": {"type": "DT_FLOAT"}}}, {"name": "conv2d_1/kernel", "op": "Const", "attr": {"value": {"tensor": {"dtype": "DT_FLOAT", "tensorShape": {"dim": [{"size": "1"}, {"size": "1"}, {"size": "128"}, {"size": "64"}]}}}, "dtype": {"type": "DT_FLOAT"}}}, {"name": "conv2d_1/bias", "op": "Const", "attr": {"dtype": {"type": "DT_FLOAT"}, "value": {"tensor": {"dtype": "DT_FLOAT", "tensorShape": {"dim": [{"size": "64"}]}}}}}, {"name": "separable_conv2d_6/depthwise_kernel", "op": "Const", "attr": {"value": {"tensor": {"dtype": "DT_FLOAT", "tensorShape": {"dim": [{"size": "3"}, {"size": "3"}, {"size": "64"}, {"size": "1"}]}}}, "dtype": {"type": "DT_FLOAT"}}}, {"name": "separable_conv2d_7/depthwise_kernel", "op": "Const", "attr": {"dtype": {"type": "DT_FLOAT"}, "value": {"tensor": {"dtype": "DT_FLOAT", "tensorShape": {"dim": [{"size": "3"}, {"size": "3"}, {"size": "128"}, {"size": "1"}]}}}}}, {"name": "conv2d_2/kernel", "op": "Const", "attr": {"dtype": {"type": "DT_FLOAT"}, "value": {"tensor": {"dtype": "DT_FLOAT", "tensorShape": {"dim": [{"size": "1"}, {"size": "1"}, {"size": "128"}, {"size": "64"}]}}}}}, {"name": "conv2d_2/bias", "op": "Const", "attr": {"value": {"tensor": {"dtype": "DT_FLOAT", "tensorShape": {"dim": [{"size": "64"}]}}}, "dtype": {"type": "DT_FLOAT"}}}, {"name": "ssr_S_model/feat_S_model_2/reshape_1/strided_slice/stack", "op": "Const", "attr": {"value": {"tensor": {"dtype": "DT_INT32", "tensorShape": {"dim": [{"size": "1"}]}}}, "dtype": {"type": "DT_INT32"}}}, {"name": "ssr_S_model/feat_S_model_2/reshape_1/strided_slice/stack_1", "op": "Const", "attr": {"value": {"tensor": {"dtype": "DT_INT32", "tensorShape": {"dim": [{"size": "1"}]}}}, "dtype": {"type": "DT_INT32"}}}, {"name": "ssr_S_model/feat_S_model_2/reshape_1/strided_slice/stack_2", "op": "Const", "attr": {"value": {"tensor": {"dtype": "DT_INT32", "tensorShape": {"dim": [{"size": "1"}]}}}, "dtype": {"type": "DT_INT32"}}}, {"name": "ssr_S_model/feat_S_model_2/reshape_1/Reshape/shape/1", "op": "Const", "attr": {"value": {"tensor": {"dtype": "DT_INT32", "tensorShape": {}}}, "dtype": {"type": "DT_INT32"}}}, {"name": "separable_conv2d_11/depthwise_kernel", "op": "Const", "attr": {"dtype": {"type": "DT_FLOAT"}, "value": {"tensor": {"dtype": "DT_FLOAT", "tensorShape": {"dim": [{"size": "3"}, {"size": "3"}, {"size": "32"}, {"size": "1"}]}}}}}, {"name": "separable_conv2d_12/depthwise_kernel", "op": "Const", "attr": {"dtype": {"type": "DT_FLOAT"}, "value": {"tensor": {"dtype": "DT_FLOAT", "tensorShape": {"dim": [{"size": "3"}, {"size": "3"}, {"size": "64"}, {"size": "1"}]}}}}}, {"name": "conv2d_3/kernel", "op": "Const", "attr": {"dtype": {"type": "DT_FLOAT"}, "value": {"tensor": {"dtype": "DT_FLOAT", "tensorShape": {"dim": [{"size": "1"}, {"size": "1"}, {"size": "64"}, {"size": "64"}]}}}}}, {"name": "conv2d_3/bias", "op": "Const", "attr": {"dtype": {"type": "DT_FLOAT"}, "value": {"tensor": {"dtype": "DT_FLOAT", "tensorShape": {"dim": [{"size": "64"}]}}}}}, {"name": "separable_conv2d_4/depthwise_kernel", "op": "Const", "attr": {"value": {"tensor": {"dtype": "DT_FLOAT", "tensorShape": {"dim": [{"size": "3"}, {"size": "3"}, {"size": "32"}, {"size": "1"}]}}}, "dtype": {"type": "DT_FLOAT"}}}, {"name": "separable_conv2d_5/depthwise_kernel", "op": "Const", "attr": {"value": {"tensor": {"dtype": "DT_FLOAT", "tensorShape": {"dim": [{"size": "3"}, {"size": "3"}, {"size": "64"}, {"size": "1"}]}}}, "dtype": {"type": "DT_FLOAT"}}}, {"name": "conv2d_4/kernel", "op": "Const", "attr": {"value": {"tensor": {"dtype": "DT_FLOAT", "tensorShape": {"dim": [{"size": "1"}, {"size": "1"}, {"size": "64"}, {"size": "64"}]}}}, "dtype": {"type": "DT_FLOAT"}}}, {"name": "conv2d_4/bias", "op": "Const", "attr": {"dtype": {"type": "DT_FLOAT"}, "value": {"tensor": {"dtype": "DT_FLOAT", "tensorShape": {"dim": [{"size": "64"}]}}}}}, {"name": "ssr_S_model/feat_S_model_1/reshape_1/strided_slice/stack", "op": "Const", "attr": {"value": {"tensor": {"dtype": "DT_INT32", "tensorShape": {"dim": [{"size": "1"}]}}}, "dtype": {"type": "DT_INT32"}}}, {"name": "ssr_S_model/feat_S_model_1/reshape_1/strided_slice/stack_1", "op": "Const", "attr": {"dtype": {"type": "DT_INT32"}, "value": {"tensor": {"dtype": "DT_INT32", "tensorShape": {"dim": [{"size": "1"}]}}}}}, {"name": "ssr_S_model/feat_S_model_1/reshape_1/strided_slice/stack_2", "op": "Const", "attr": {"dtype": {"type": "DT_INT32"}, "value": {"tensor": {"dtype": "DT_INT32", "tensorShape": {"dim": [{"size": "1"}]}}}}}, {"name": "ssr_S_model/feat_S_model_1/reshape_1/Reshape/shape/1", "op": "Const", "attr": {"dtype": {"type": "DT_INT32"}, "value": {"tensor": {"dtype": "DT_INT32", "tensorShape": {}}}}}, {"name": "ssr_S_model/concatenate_1/concat/axis", "op": "Const", "attr": {"dtype": {"type": "DT_INT32"}, "value": {"tensor": {"dtype": "DT_INT32", "tensorShape": {}}}}}, {"name": "dense_2/kernel", "op": "Const", "attr": {"dtype": {"type": "DT_FLOAT"}, "value": {"tensor": {"dtype": "DT_FLOAT", "tensorShape": {"dim": [{"size": "192"}, {"size": "35"}]}}}}}, {"name": "dense_2/bias", "op": "Const", "attr": {"dtype": {"type": "DT_FLOAT"}, "value": {"tensor": {"dtype": "DT_FLOAT", "tensorShape": {"dim": [{"size": "35"}]}}}}}, {"name": "ssr_S_model/reshape_3/strided_slice/stack", "op": "Const", "attr": {"dtype": {"type": "DT_INT32"}, "value": {"tensor": {"dtype": "DT_INT32", "tensorShape": {"dim": [{"size": "1"}]}}}}}, {"name": "ssr_S_model/reshape_3/strided_slice/stack_1", "op": "Const", "attr": {"dtype": {"type": "DT_INT32"}, "value": {"tensor": {"dtype": "DT_INT32", "tensorShape": {"dim": [{"size": "1"}]}}}}}, {"name": "ssr_S_model/reshape_3/strided_slice/stack_2", "op": "Const", "attr": {"dtype": {"type": "DT_INT32"}, "value": {"tensor": {"dtype": "DT_INT32", "tensorShape": {"dim": [{"size": "1"}]}}}}}, {"name": "ssr_S_model/reshape_3/Reshape/shape/1", "op": "Const", "attr": {"value": {"tensor": {"dtype": "DT_INT32", "tensorShape": {}}}, "dtype": {"type": "DT_INT32"}}}, {"name": "ssr_S_model/reshape_3/Reshape/shape/2", "op": "Const", "attr": {"dtype": {"type": "DT_INT32"}, "value": {"tensor": {"dtype": "DT_INT32", "tensorShape": {}}}}}, {"name": "separable_conv2d_8/depthwise_kernel", "op": "Const", "attr": {"value": {"tensor": {"dtype": "DT_FLOAT", "tensorShape": {"dim": [{"size": "3"}, {"size": "3"}, {"size": "3"}, {"size": "1"}]}}}, "dtype": {"type": "DT_FLOAT"}}}, {"name": "separable_conv2d_9/depthwise_kernel", "op": "Const", "attr": {"value": {"tensor": {"dtype": "DT_FLOAT", "tensorShape": {"dim": [{"size": "3"}, {"size": "3"}, {"size": "16"}, {"size": "1"}]}}}, "dtype": {"type": "DT_FLOAT"}}}, {"name": "separable_conv2d_10/depthwise_kernel", "op": "Const", "attr": {"value": {"tensor": {"dtype": "DT_FLOAT", "tensorShape": {"dim": [{"size": "3"}, {"size": "3"}, {"size": "32"}, {"size": "1"}]}}}, "dtype": {"type": "DT_FLOAT"}}}, {"name": "conv2d_5/kernel", "op": "Const", "attr": {"value": {"tensor": {"dtype": "DT_FLOAT", "tensorShape": {"dim": [{"size": "1"}, {"size": "1"}, {"size": "32"}, {"size": "64"}]}}}, "dtype": {"type": "DT_FLOAT"}}}, {"name": "conv2d_5/bias", "op": "Const", "attr": {"value": {"tensor": {"dtype": "DT_FLOAT", "tensorShape": {"dim": [{"size": "64"}]}}}, "dtype": {"type": "DT_FLOAT"}}}, {"name": "input_1", "op": "Placeholder", "attr": {"dtype": {"type": "DT_FLOAT"}, "shape": {"shape": {"dim": [{"size": "-1"}, {"size": "64"}, {"size": "64"}, {"size": "3"}]}}}}, {"name": "separable_conv2d_1/depthwise_kernel", "op": "Const", "attr": {"dtype": {"type": "DT_FLOAT"}, "value": {"tensor": {"dtype": "DT_FLOAT", "tensorShape": {"dim": [{"size": "3"}, {"size": "3"}, {"size": "3"}, {"size": "1"}]}}}}}, {"name": "separable_conv2d_2/depthwise_kernel", "op": "Const", "attr": {"value": {"tensor": {"dtype": "DT_FLOAT", "tensorShape": {"dim": [{"size": "3"}, {"size": "3"}, {"size": "16"}, {"size": "1"}]}}}, "dtype": {"type": "DT_FLOAT"}}}, {"name": "separable_conv2d_3/depthwise_kernel", "op": "Const", "attr": {"value": {"tensor": {"dtype": "DT_FLOAT", "tensorShape": {"dim": [{"size": "3"}, {"size": "3"}, {"size": "32"}, {"size": "1"}]}}}, "dtype": {"type": "DT_FLOAT"}}}, {"name": "conv2d_6/kernel", "op": "Const", "attr": {"value": {"tensor": {"dtype": "DT_FLOAT", "tensorShape": {"dim": [{"size": "1"}, {"size": "1"}, {"size": "32"}, {"size": "64"}]}}}, "dtype": {"type": "DT_FLOAT"}}}, {"name": "conv2d_6/bias", "op": "Const", "attr": {"value": {"tensor": {"dtype": "DT_FLOAT", "tensorShape": {"dim": [{"size": "64"}]}}}, "dtype": {"type": "DT_FLOAT"}}}, {"name": "conv2d_7/kernel", "op": "Const", "attr": {"dtype": {"type": "DT_FLOAT"}, "value": {"tensor": {"dtype": "DT_FLOAT", "tensorShape": {"dim": [{"size": "1"}, {"size": "1"}, {"size": "64"}, {"size": "1"}]}}}}}, {"name": "conv2d_7/bias", "op": "Const", "attr": {"value": {"tensor": {"dtype": "DT_FLOAT", "tensorShape": {"dim": [{"size": "1"}]}}}, "dtype": {"type": "DT_FLOAT"}}}, {"name": "ssr_S_model/feat_S_model/reshape_1/strided_slice/stack", "op": "Const", "attr": {"value": {"tensor": {"dtype": "DT_INT32", "tensorShape": {"dim": [{"size": "1"}]}}}, "dtype": {"type": "DT_INT32"}}}, {"name": "ssr_S_model/feat_S_model/reshape_1/strided_slice/stack_1", "op": "Const", "attr": {"dtype": {"type": "DT_INT32"}, "value": {"tensor": {"dtype": "DT_INT32", "tensorShape": {"dim": [{"size": "1"}]}}}}}, {"name": "ssr_S_model/feat_S_model/reshape_1/strided_slice/stack_2", "op": "Const", "attr": {"dtype": {"type": "DT_INT32"}, "value": {"tensor": {"dtype": "DT_INT32", "tensorShape": {"dim": [{"size": "1"}]}}}}}, {"name": "ssr_S_model/feat_S_model/reshape_1/Reshape/shape/1", "op": "Const", "attr": {"value": {"tensor": {"dtype": "DT_INT32", "tensorShape": {}}}, "dtype": {"type": "DT_INT32"}}}, {"name": "dense_1/kernel", "op": "Const", "attr": {"value": {"tensor": {"dtype": "DT_FLOAT", "tensorShape": {"dim": [{"size": "64"}, {"size": "960"}]}}}, "dtype": {"type": "DT_FLOAT"}}}, {"name": "dense_1/bias", "op": "Const", "attr": {"dtype": {"type": "DT_FLOAT"}, "value": {"tensor": {"dtype": "DT_FLOAT", "tensorShape": {"dim": [{"size": "960"}]}}}}}, {"name": "ssr_S_model/feat_S_model/reshape_2/strided_slice/stack", "op": "Const", "attr": {"dtype": {"type": "DT_INT32"}, "value": {"tensor": {"dtype": "DT_INT32", "tensorShape": {"dim": [{"size": "1"}]}}}}}, {"name": "ssr_S_model/feat_S_model/reshape_2/strided_slice/stack_1", "op": "Const", "attr": {"dtype": {"type": "DT_INT32"}, "value": {"tensor": {"dtype": "DT_INT32", "tensorShape": {"dim": [{"size": "1"}]}}}}}, {"name": "ssr_S_model/feat_S_model/reshape_2/strided_slice/stack_2", "op": "Const", "attr": {"value": {"tensor": {"dtype": "DT_INT32", "tensorShape": {"dim": [{"size": "1"}]}}}, "dtype": {"type": "DT_INT32"}}}, {"name": "ssr_S_model/feat_S_model/reshape_2/Reshape/shape/1", "op": "Const", "attr": {"dtype": {"type": "DT_INT32"}, "value": {"tensor": {"dtype": "DT_INT32", "tensorShape": {}}}}}, {"name": "ssr_S_model/feat_S_model/reshape_2/Reshape/shape/2", "op": "Const", "attr": {"value": {"tensor": {"dtype": "DT_INT32", "tensorShape": {}}}, "dtype": {"type": "DT_INT32"}}}, {"name": "ssr_S_model/matrix_norm_layer_3/Sum/reduction_indices", "op": "Const", "attr": {"dtype": {"type": "DT_INT32"}, "value": {"tensor": {"dtype": "DT_INT32", "tensorShape": {}}}}}, {"name": "ssr_S_model/matrix_norm_layer_3/Tile/multiples", "op": "Const", "attr": {"value": {"tensor": {"dtype": "DT_INT32", "tensorShape": {"dim": [{"size": "3"}]}}}, "dtype": {"type": "DT_INT32"}}}, {"name": "ssr_S_model/concatenate_3/concat/axis", "op": "Const", "attr": {"value": {"tensor": {"dtype": "DT_INT32", "tensorShape": {}}}, "dtype": {"type": "DT_INT32"}}}, {"name": "ssr_Cap_model/caps/ExpandDims/dim", "op": "Const", "attr": {"dtype": {"type": "DT_INT32"}, "value": {"tensor": {"dtype": "DT_INT32", "tensorShape": {}}}}}, {"name": "ssr_Cap_model/caps/Tile/multiples", "op": "Const", "attr": {"value": {"tensor": {"dtype": "DT_INT32", "tensorShape": {"dim": [{"size": "4"}]}}}, "dtype": {"type": "DT_INT32"}}}, {"name": "ssr_Cap_model/caps/map/strided_slice/stack", "op": "Const", "attr": {"value": {"tensor": {"dtype": "DT_INT32", "tensorShape": {"dim": [{"size": "1"}]}}}, "dtype": {"type": "DT_INT32"}}}, {"name": "ssr_Cap_model/caps/map/strided_slice/stack_1", "op": "Const", "attr": {"value": {"tensor": {"dtype": "DT_INT32", "tensorShape": {"dim": [{"size": "1"}]}}}, "dtype": {"type": "DT_INT32"}}}, {"name": "ssr_Cap_model/caps/map/strided_slice/stack_2", "op": "Const", "attr": {"value": {"tensor": {"dtype": "DT_INT32", "tensorShape": {"dim": [{"size": "1"}]}}}, "dtype": {"type": "DT_INT32"}}}, {"name": "ssr_Cap_model/aggregated_feature_extraction_layer_1/strided_slice_2/stack", "op": "Const", "attr": {"value": {"tensor": {"dtype": "DT_INT32", "tensorShape": {"dim": [{"size": "3"}]}}}, "dtype": {"type": "DT_INT32"}}}, {"name": "ssr_Cap_model/aggregated_feature_extraction_layer_1/strided_slice_2/stack_1", "op": "Const", "attr": {"value": {"tensor": {"dtype": "DT_INT32", "tensorShape": {"dim": [{"size": "3"}]}}}, "dtype": {"type": "DT_INT32"}}}, {"name": "ssr_Cap_model/aggregated_feature_extraction_layer_1/strided_slice_2/stack_2", "op": "Const", "attr": {"value": {"tensor": {"dtype": "DT_INT32", "tensorShape": {"dim": [{"size": "3"}]}}}, "dtype": {"type": "DT_INT32"}}}, {"name": "ssr_Cap_model/reshape_9/strided_slice/stack", "op": "Const", "attr": {"dtype": {"type": "DT_INT32"}, "value": {"tensor": {"dtype": "DT_INT32", "tensorShape": {"dim": [{"size": "1"}]}}}}}, {"name": "ssr_Cap_model/reshape_9/strided_slice/stack_1", "op": "Const", "attr": {"dtype": {"type": "DT_INT32"}, "value": {"tensor": {"dtype": "DT_INT32", "tensorShape": {"dim": [{"size": "1"}]}}}}}, {"name": "ssr_Cap_model/reshape_9/strided_slice/stack_2", "op": "Const", "attr": {"dtype": {"type": "DT_INT32"}, "value": {"tensor": {"dtype": "DT_INT32", "tensorShape": {"dim": [{"size": "1"}]}}}}}, {"name": "ssr_Cap_model/reshape_9/Reshape/shape/1", "op": "Const", "attr": {"dtype": {"type": "DT_INT32"}, "value": {"tensor": {"dtype": "DT_INT32", "tensorShape": {}}}}}, {"name": "ssr_F_Cap_model/feat_slice_layer_7/strided_slice/stack", "op": "Const", "attr": {"value": {"tensor": {"dtype": "DT_INT32", "tensorShape": {"dim": [{"size": "2"}]}}}, "dtype": {"type": "DT_INT32"}}}, {"name": "ssr_F_Cap_model/feat_slice_layer_7/strided_slice/stack_1", "op": "Const", "attr": {"dtype": {"type": "DT_INT32"}, "value": {"tensor": {"dtype": "DT_INT32", "tensorShape": {"dim": [{"size": "2"}]}}}}}, {"name": "ssr_F_Cap_model/feat_slice_layer_7/strided_slice/stack_2", "op": "Const", "attr": {"dtype": {"type": "DT_INT32"}, "value": {"tensor": {"dtype": "DT_INT32", "tensorShape": {"dim": [{"size": "2"}]}}}}}, {"name": "delta_s3/kernel", "op": "Const", "attr": {"value": {"tensor": {"dtype": "DT_FLOAT", "tensorShape": {"dim": [{"size": "4"}, {"size": "3"}]}}}, "dtype": {"type": "DT_FLOAT"}}}, {"name": "delta_s3/bias", "op": "Const", "attr": {"value": {"tensor": {"dtype": "DT_FLOAT", "tensorShape": {"dim": [{"size": "3"}]}}}, "dtype": {"type": "DT_FLOAT"}}}, {"name": "pred_pose/mul_24/y", "op": "Const", "attr": {"value": {"tensor": {"dtype": "DT_FLOAT", "tensorShape": {}}}, "dtype": {"type": "DT_FLOAT"}}}, {"name": "ssr_G_model/separable_conv2d_8/separable_conv2d_weights", "op": "Const", "attr": {"value": {"tensor": {"dtype": "DT_FLOAT", "tensorShape": {"dim": [{"size": "1"}, {"size": "1"}, {"size": "3"}, {"size": "16"}]}}}, "dtype": {"type": "DT_FLOAT"}}}, {"name": "ssr_G_model/separable_conv2d_8/separable_conv2d_bn_offset", "op": "Const", "attr": {"value": {"tensor": {"dtype": "DT_FLOAT", "tensorShape": {"dim": [{"size": "16"}]}}}, "dtype": {"type": "DT_FLOAT"}}}, {"name": "ssr_G_model/separable_conv2d_1/separable_conv2d_weights", "op": "Const", "attr": {"dtype": {"type": "DT_FLOAT"}, "value": {"tensor": {"dtype": "DT_FLOAT", "tensorShape": {"dim": [{"size": "1"}, {"size": "1"}, {"size": "3"}, {"size": "16"}]}}}}}, {"name": "ssr_G_model/separable_conv2d_1/separable_conv2d_bn_offset", "op": "Const", "attr": {"value": {"tensor": {"dtype": "DT_FLOAT", "tensorShape": {"dim": [{"size": "16"}]}}}, "dtype": {"type": "DT_FLOAT"}}}, {"name": "ssr_G_model/separable_conv2d_9/separable_conv2d_weights", "op": "Const", "attr": {"dtype": {"type": "DT_FLOAT"}, "value": {"tensor": {"dtype": "DT_FLOAT", "tensorShape": {"dim": [{"size": "1"}, {"size": "1"}, {"size": "16"}, {"size": "32"}]}}}}}, {"name": "ssr_G_model/separable_conv2d_9/separable_conv2d_bn_offset", "op": "Const", "attr": {"dtype": {"type": "DT_FLOAT"}, "value": {"tensor": {"dtype": "DT_FLOAT", "tensorShape": {"dim": [{"size": "32"}]}}}}}, {"name": "ssr_G_model/separable_conv2d_2/separable_conv2d_weights", "op": "Const", "attr": {"dtype": {"type": "DT_FLOAT"}, "value": {"tensor": {"dtype": "DT_FLOAT", "tensorShape": {"dim": [{"size": "1"}, {"size": "1"}, {"size": "16"}, {"size": "32"}]}}}}}, {"name": "ssr_G_model/separable_conv2d_2/separable_conv2d_bn_offset", "op": "Const", "attr": {"value": {"tensor": {"dtype": "DT_FLOAT", "tensorShape": {"dim": [{"size": "32"}]}}}, "dtype": {"type": "DT_FLOAT"}}}, {"name": "ssr_G_model/separable_conv2d_10/separable_conv2d_weights", "op": "Const", "attr": {"value": {"tensor": {"dtype": "DT_FLOAT", "tensorShape": {"dim": [{"size": "1"}, {"size": "1"}, {"size": "32"}, {"size": "32"}]}}}, "dtype": {"type": "DT_FLOAT"}}}, {"name": "ssr_G_model/separable_conv2d_10/separable_conv2d_bn_offset", "op": "Const", "attr": {"dtype": {"type": "DT_FLOAT"}, "value": {"tensor": {"dtype": "DT_FLOAT", "tensorShape": {"dim": [{"size": "32"}]}}}}}, {"name": "ssr_G_model/separable_conv2d_3/separable_conv2d_weights", "op": "Const", "attr": {"value": {"tensor": {"dtype": "DT_FLOAT", "tensorShape": {"dim": [{"size": "1"}, {"size": "1"}, {"size": "32"}, {"size": "32"}]}}}, "dtype": {"type": "DT_FLOAT"}}}, {"name": "ssr_G_model/separable_conv2d_3/separable_conv2d_bn_offset", "op": "Const", "attr": {"value": {"tensor": {"dtype": "DT_FLOAT", "tensorShape": {"dim": [{"size": "32"}]}}}, "dtype": {"type": "DT_FLOAT"}}}, {"name": "ssr_G_model/separable_conv2d_11/separable_conv2d_weights", "op": "Const", "attr": {"dtype": {"type": "DT_FLOAT"}, "value": {"tensor": {"dtype": "DT_FLOAT", "tensorShape": {"dim": [{"size": "1"}, {"size": "1"}, {"size": "32"}, {"size": "64"}]}}}}}, {"name": "ssr_G_model/separable_conv2d_11/separable_conv2d_bn_offset", "op": "Const", "attr": {"dtype": {"type": "DT_FLOAT"}, "value": {"tensor": {"dtype": "DT_FLOAT", "tensorShape": {"dim": [{"size": "64"}]}}}}}, {"name": "ssr_G_model/separable_conv2d_4/separable_conv2d_weights", "op": "Const", "attr": {"dtype": {"type": "DT_FLOAT"}, "value": {"tensor": {"dtype": "DT_FLOAT", "tensorShape": {"dim": [{"size": "1"}, {"size": "1"}, {"size": "32"}, {"size": "64"}]}}}}}, {"name": "ssr_G_model/separable_conv2d_4/separable_conv2d_bn_offset", "op": "Const", "attr": {"dtype": {"type": "DT_FLOAT"}, "value": {"tensor": {"dtype": "DT_FLOAT", "tensorShape": {"dim": [{"size": "64"}]}}}}}, {"name": "ssr_G_model/separable_conv2d_12/separable_conv2d_weights", "op": "Const", "attr": {"dtype": {"type": "DT_FLOAT"}, "value": {"tensor": {"dtype": "DT_FLOAT", "tensorShape": {"dim": [{"size": "1"}, {"size": "1"}, {"size": "64"}, {"size": "64"}]}}}}}, {"name": "ssr_G_model/separable_conv2d_12/separable_conv2d_bn_offset", "op": "Const", "attr": {"value": {"tensor": {"dtype": "DT_FLOAT", "tensorShape": {"dim": [{"size": "64"}]}}}, "dtype": {"type": "DT_FLOAT"}}}, {"name": "ssr_G_model/separable_conv2d_5/separable_conv2d_weights", "op": "Const", "attr": {"dtype": {"type": "DT_FLOAT"}, "value": {"tensor": {"dtype": "DT_FLOAT", "tensorShape": {"dim": [{"size": "1"}, {"size": "1"}, {"size": "64"}, {"size": "64"}]}}}}}, {"name": "ssr_G_model/separable_conv2d_5/separable_conv2d_bn_offset", "op": "Const", "attr": {"value": {"tensor": {"dtype": "DT_FLOAT", "tensorShape": {"dim": [{"size": "64"}]}}}, "dtype": {"type": "DT_FLOAT"}}}, {"name": "ssr_G_model/separable_conv2d_13/separable_conv2d_weights", "op": "Const", "attr": {"dtype": {"type": "DT_FLOAT"}, "value": {"tensor": {"dtype": "DT_FLOAT", "tensorShape": {"dim": [{"size": "1"}, {"size": "1"}, {"size": "64"}, {"size": "128"}]}}}}}, {"name": "ssr_G_model/separable_conv2d_13/separable_conv2d_bn_offset", "op": "Const", "attr": {"value": {"tensor": {"dtype": "DT_FLOAT", "tensorShape": {"dim": [{"size": "128"}]}}}, "dtype": {"type": "DT_FLOAT"}}}, {"name": "ssr_G_model/separable_conv2d_6/separable_conv2d_weights", "op": "Const", "attr": {"value": {"tensor": {"dtype": "DT_FLOAT", "tensorShape": {"dim": [{"size": "1"}, {"size": "1"}, {"size": "64"}, {"size": "128"}]}}}, "dtype": {"type": "DT_FLOAT"}}}, {"name": "ssr_G_model/separable_conv2d_6/separable_conv2d_bn_offset", "op": "Const", "attr": {"dtype": {"type": "DT_FLOAT"}, "value": {"tensor": {"dtype": "DT_FLOAT", "tensorShape": {"dim": [{"size": "128"}]}}}}}, {"name": "ssr_G_model/separable_conv2d_14/separable_conv2d_weights", "op": "Const", "attr": {"value": {"tensor": {"dtype": "DT_FLOAT", "tensorShape": {"dim": [{"size": "1"}, {"size": "1"}, {"size": "128"}, {"size": "128"}]}}}, "dtype": {"type": "DT_FLOAT"}}}, {"name": "ssr_G_model/separable_conv2d_14/separable_conv2d_bn_offset", "op": "Const", "attr": {"value": {"tensor": {"dtype": "DT_FLOAT", "tensorShape": {"dim": [{"size": "128"}]}}}, "dtype": {"type": "DT_FLOAT"}}}, {"name": "ssr_G_model/separable_conv2d_7/separable_conv2d_weights", "op": "Const", "attr": {"value": {"tensor": {"dtype": "DT_FLOAT", "tensorShape": {"dim": [{"size": "1"}, {"size": "1"}, {"size": "128"}, {"size": "128"}]}}}, "dtype": {"type": "DT_FLOAT"}}}, {"name": "ssr_G_model/separable_conv2d_7/separable_conv2d_bn_offset", "op": "Const", "attr": {"value": {"tensor": {"dtype": "DT_FLOAT", "tensorShape": {"dim": [{"size": "128"}]}}}, "dtype": {"type": "DT_FLOAT"}}}, {"name": "ssr_Cap_model/caps/map/while/MatMul/Enter", "op": "Enter", "input": ["caps/W"], "attr": {"parallel_iterations": {"i": "10"}, "frame_name": {"s": "c3NyX0NhcF9tb2RlbC9jYXBzL21hcC93aGlsZS93aGlsZV9jb250ZXh0"}, "T": {"type": "DT_FLOAT"}, "is_constant": {"b": true}}}, {"name": "ssr_Cap_model/caps/map/while/Enter_1", "op": "Enter", "input": ["ssr_Cap_model/caps/map/Const"], "attr": {"parallel_iterations": {"i": "10"}, "frame_name": {"s": "c3NyX0NhcF9tb2RlbC9jYXBzL21hcC93aGlsZS93aGlsZV9jb250ZXh0"}, "T": {"type": "DT_INT32"}, "is_constant": {"b": false}}}, {"name": "ssr_Cap_model/caps/map/while/Enter", "op": "Enter", "input": ["ssr_Cap_model/caps/map/while/iteration_counter"], "attr": {"is_constant": {"b": false}, "frame_name": {"s": "c3NyX0NhcF9tb2RlbC9jYXBzL21hcC93aGlsZS93aGlsZV9jb250ZXh0"}, "parallel_iterations": {"i": "10"}, "T": {"type": "DT_INT32"}}}, {"name": "ssr_G_model/separable_conv2d_8/separable_conv2d/depthwise", "op": "DepthwiseConv2dNative", "input": ["input_1", "separable_conv2d_8/depthwise_kernel"], "attr": {"dilations": {"list": {"i": ["1", "1", "1", "1"]}}, "padding": {"s": "U0FNRQ=="}, "explicit_paddings": {"list": {}}, "T": {"type": "DT_FLOAT"}, "data_format": {"s": "TkhXQw=="}, "strides": {"list": {"i": ["1", "1", "1", "1"]}}}}, {"name": "ssr_G_model/separable_conv2d_1/separable_conv2d/depthwise", "op": "DepthwiseConv2dNative", "input": ["input_1", "separable_conv2d_1/depthwise_kernel"], "attr": {"data_format": {"s": "TkhXQw=="}, "strides": {"list": {"i": ["1", "1", "1", "1"]}}, "explicit_paddings": {"list": {}}, "padding": {"s": "U0FNRQ=="}, "dilations": {"list": {"i": ["1", "1", "1", "1"]}}, "T": {"type": "DT_FLOAT"}}}, {"name": "ConstantFolding/caps/W_enter", "op": "Const", "input": ["^ssr_Cap_model/caps/map/while/MatMul/Enter"], "attr": {"dtype": {"type": "DT_FLOAT"}, "value": {"tensor": {"dtype": "DT_FLOAT", "tensorShape": {"dim": [{"size": "3"}, {"size": "21"}, {"size": "16"}, {"size": "64"}]}}}}}, {"name": "ssr_Cap_model/caps/map/while/Merge_1", "op": "Merge", "input": ["ssr_Cap_model/caps/map/while/Enter_1", "ssr_Cap_model/caps/map/while/NextIteration_1"], "attr": {"T": {"type": "DT_INT32"}, "N": {"i": "2"}}}, {"name": "ssr_Cap_model/caps/map/while/Merge", "op": "Merge", "input": ["ssr_Cap_model/caps/map/while/Enter", "ssr_Cap_model/caps/map/while/NextIteration"], "attr": {"N": {"i": "2"}, "T": {"type": "DT_INT32"}}}, {"name": "ssr_G_model/batch_normalization_8/FusedBatchNorm_1", "op": "_FusedConv2D", "input": ["ssr_G_model/separable_conv2d_8/separable_conv2d/depthwise", "ssr_G_model/separable_conv2d_8/separable_conv2d_weights", "ssr_G_model/separable_conv2d_8/separable_conv2d_bn_offset"], "device": "/device:CPU:0", "attr": {"padding": {"s": "VkFMSUQ="}, "strides": {"list": {"i": ["1", "1", "1", "1"]}}, "num_args": {"i": "1"}, "dilations": {"list": {"i": ["1", "1", "1", "1"]}}, "T": {"type": "DT_FLOAT"}, "epsilon": {"f": 0.0}, "use_cudnn_on_gpu": {"b": true}, "explicit_paddings": {"list": {}}, "fused_ops": {"list": {"s": ["Qmlhc0FkZA=="]}}, "data_format": {"s": "TkhXQw=="}}}, {"name": "ssr_G_model/activation_1/Relu", "op": "_FusedConv2D", "input": ["ssr_G_model/separable_conv2d_1/separable_conv2d/depthwise", "ssr_G_model/separable_conv2d_1/separable_conv2d_weights", "ssr_G_model/separable_conv2d_1/separable_conv2d_bn_offset"], "device": "/device:CPU:0", "attr": {"fused_ops": {"list": {"s": ["Qmlhc0FkZA==", "UmVsdQ=="]}}, "epsilon": {"f": 0.0}, "T": {"type": "DT_FLOAT"}, "num_args": {"i": "1"}, "use_cudnn_on_gpu": {"b": true}, "padding": {"s": "VkFMSUQ="}, "strides": {"list": {"i": ["1", "1", "1", "1"]}}, "explicit_paddings": {"list": {}}, "data_format": {"s": "TkhXQw=="}, "dilations": {"list": {"i": ["1", "1", "1", "1"]}}}}, {"name": "ssr_G_model/max_pooling2d_1/MaxPool", "op": "MaxPool", "input": ["ssr_G_model/batch_normalization_8/FusedBatchNorm_1"], "attr": {"T": {"type": "DT_FLOAT"}, "ksize": {"list": {"i": ["1", "2", "2", "1"]}}, "data_format": {"s": "TkhXQw=="}, "padding": {"s": "VkFMSUQ="}, "strides": {"list": {"i": ["1", "2", "2", "1"]}}}}, {"name": "ssr_G_model/average_pooling2d_1/AvgPool", "op": "AvgPool", "input": ["ssr_G_model/activation_1/Relu"], "attr": {"padding": {"s": "VkFMSUQ="}, "ksize": {"list": {"i": ["1", "2", "2", "1"]}}, "data_format": {"s": "TkhXQw=="}, "T": {"type": "DT_FLOAT"}, "strides": {"list": {"i": ["1", "2", "2", "1"]}}}}, {"name": "ssr_G_model/activation_8/Tanh", "op": "Tanh", "input": ["ssr_G_model/max_pooling2d_1/MaxPool"], "attr": {"T": {"type": "DT_FLOAT"}}}, {"name": "ssr_G_model/separable_conv2d_2/separable_conv2d/depthwise", "op": "DepthwiseConv2dNative", "input": ["ssr_G_model/average_pooling2d_1/AvgPool", "separable_conv2d_2/depthwise_kernel"], "attr": {"data_format": {"s": "TkhXQw=="}, "dilations": {"list": {"i": ["1", "1", "1", "1"]}}, "strides": {"list": {"i": ["1", "1", "1", "1"]}}, "explicit_paddings": {"list": {}}, "T": {"type": "DT_FLOAT"}, "padding": {"s": "U0FNRQ=="}}}, {"name": "ssr_G_model/separable_conv2d_9/separable_conv2d/depthwise", "op": "DepthwiseConv2dNative", "input": ["ssr_G_model/activation_8/Tanh", "separable_conv2d_9/depthwise_kernel"], "attr": {"strides": {"list": {"i": ["1", "1", "1", "1"]}}, "T": {"type": "DT_FLOAT"}, "dilations": {"list": {"i": ["1", "1", "1", "1"]}}, "explicit_paddings": {"list": {}}, "padding": {"s": "U0FNRQ=="}, "data_format": {"s": "TkhXQw=="}}}, {"name": "ssr_G_model/activation_2/Relu", "op": "_FusedConv2D", "input": ["ssr_G_model/separable_conv2d_2/separable_conv2d/depthwise", "ssr_G_model/separable_conv2d_2/separable_conv2d_weights", "ssr_G_model/separable_conv2d_2/separable_conv2d_bn_offset"], "device": "/device:CPU:0", "attr": {"epsilon": {"f": 0.0}, "T": {"type": "DT_FLOAT"}, "explicit_paddings": {"list": {}}, "fused_ops": {"list": {"s": ["Qmlhc0FkZA==", "UmVsdQ=="]}}, "padding": {"s": "VkFMSUQ="}, "use_cudnn_on_gpu": {"b": true}, "num_args": {"i": "1"}, "dilations": {"list": {"i": ["1", "1", "1", "1"]}}, "data_format": {"s": "TkhXQw=="}, "strides": {"list": {"i": ["1", "1", "1", "1"]}}}}, {"name": "ssr_G_model/batch_normalization_9/FusedBatchNorm_1", "op": "_FusedConv2D", "input": ["ssr_G_model/separable_conv2d_9/separable_conv2d/depthwise", "ssr_G_model/separable_conv2d_9/separable_conv2d_weights", "ssr_G_model/separable_conv2d_9/separable_conv2d_bn_offset"], "device": "/device:CPU:0", "attr": {"strides": {"list": {"i": ["1", "1", "1", "1"]}}, "fused_ops": {"list": {"s": ["Qmlhc0FkZA=="]}}, "padding": {"s": "VkFMSUQ="}, "explicit_paddings": {"list": {}}, "use_cudnn_on_gpu": {"b": true}, "epsilon": {"f": 0.0}, "num_args": {"i": "1"}, "data_format": {"s": "TkhXQw=="}, "dilations": {"list": {"i": ["1", "1", "1", "1"]}}, "T": {"type": "DT_FLOAT"}}}, {"name": "ssr_G_model/separable_conv2d_3/separable_conv2d/depthwise", "op": "DepthwiseConv2dNative", "input": ["ssr_G_model/activation_2/Relu", "separable_conv2d_3/depthwise_kernel"], "attr": {"strides": {"list": {"i": ["1", "1", "1", "1"]}}, "dilations": {"list": {"i": ["1", "1", "1", "1"]}}, "T": {"type": "DT_FLOAT"}, "explicit_paddings": {"list": {}}, "padding": {"s": "U0FNRQ=="}, "data_format": {"s": "TkhXQw=="}}}, {"name": "ssr_G_model/activation_9/Tanh", "op": "Tanh", "input": ["ssr_G_model/batch_normalization_9/FusedBatchNorm_1"], "attr": {"T": {"type": "DT_FLOAT"}}}, {"name": "ssr_G_model/activation_3/Relu", "op": "_FusedConv2D", "input": ["ssr_G_model/separable_conv2d_3/separable_conv2d/depthwise", "ssr_G_model/separable_conv2d_3/separable_conv2d_weights", "ssr_G_model/separable_conv2d_3/separable_conv2d_bn_offset"], "device": "/device:CPU:0", "attr": {"use_cudnn_on_gpu": {"b": true}, "num_args": {"i": "1"}, "padding": {"s": "VkFMSUQ="}, "epsilon": {"f": 0.0}, "fused_ops": {"list": {"s": ["Qmlhc0FkZA==", "UmVsdQ=="]}}, "strides": {"list": {"i": ["1", "1", "1", "1"]}}, "dilations": {"list": {"i": ["1", "1", "1", "1"]}}, "explicit_paddings": {"list": {}}, "T": {"type": "DT_FLOAT"}, "data_format": {"s": "TkhXQw=="}}}, {"name": "ssr_G_model/separable_conv2d_10/separable_conv2d/depthwise", "op": "DepthwiseConv2dNative", "input": ["ssr_G_model/activation_9/Tanh", "separable_conv2d_10/depthwise_kernel"], "attr": {"data_format": {"s": "TkhXQw=="}, "strides": {"list": {"i": ["1", "1", "1", "1"]}}, "explicit_paddings": {"list": {}}, "dilations": {"list": {"i": ["1", "1", "1", "1"]}}, "padding": {"s": "U0FNRQ=="}, "T": {"type": "DT_FLOAT"}}}, {"name": "ssr_G_model/average_pooling2d_2/AvgPool", "op": "AvgPool", "input": ["ssr_G_model/activation_3/Relu"], "attr": {"data_format": {"s": "TkhXQw=="}, "padding": {"s": "VkFMSUQ="}, "ksize": {"list": {"i": ["1", "2", "2", "1"]}}, "strides": {"list": {"i": ["1", "2", "2", "1"]}}, "T": {"type": "DT_FLOAT"}}}, {"name": "ssr_G_model/batch_normalization_10/FusedBatchNorm_1", "op": "_FusedConv2D", "input": ["ssr_G_model/separable_conv2d_10/separable_conv2d/depthwise", "ssr_G_model/separable_conv2d_10/separable_conv2d_weights", "ssr_G_model/separable_conv2d_10/separable_conv2d_bn_offset"], "device": "/device:CPU:0", "attr": {"epsilon": {"f": 0.0}, "padding": {"s": "VkFMSUQ="}, "T": {"type": "DT_FLOAT"}, "strides": {"list": {"i": ["1", "1", "1", "1"]}}, "fused_ops": {"list": {"s": ["Qmlhc0FkZA=="]}}, "use_cudnn_on_gpu": {"b": true}, "num_args": {"i": "1"}, "explicit_paddings": {"list": {}}, "dilations": {"list": {"i": ["1", "1", "1", "1"]}}, "data_format": {"s": "TkhXQw=="}}}, {"name": "ssr_G_model/separable_conv2d_4/separable_conv2d/depthwise", "op": "DepthwiseConv2dNative", "input": ["ssr_G_model/average_pooling2d_2/AvgPool", "separable_conv2d_4/depthwise_kernel"], "attr": {"dilations": {"list": {"i": ["1", "1", "1", "1"]}}, "T": {"type": "DT_FLOAT"}, "data_format": {"s": "TkhXQw=="}, "strides": {"list": {"i": ["1", "1", "1", "1"]}}, "explicit_paddings": {"list": {}}, "padding": {"s": "U0FNRQ=="}}}, {"name": "ssr_G_model/conv2d_6/Relu", "op": "_FusedConv2D", "input": ["ssr_G_model/average_pooling2d_2/AvgPool", "conv2d_6/kernel", "conv2d_6/bias"], "device": "/device:CPU:0", "attr": {"T": {"type": "DT_FLOAT"}, "use_cudnn_on_gpu": {"b": true}, "padding": {"s": "VkFMSUQ="}, "data_format": {"s": "TkhXQw=="}, "num_args": {"i": "1"}, "explicit_paddings": {"list": {}}, "epsilon": {"f": 0.0}, "fused_ops": {"list": {"s": ["Qmlhc0FkZA==", "UmVsdQ=="]}}, "dilations": {"list": {"i": ["1", "1", "1", "1"]}}, "strides": {"list": {"i": ["1", "1", "1", "1"]}}}}, {"name": "ssr_G_model/max_pooling2d_2/MaxPool", "op": "MaxPool", "input": ["ssr_G_model/batch_normalization_10/FusedBatchNorm_1"], "attr": {"data_format": {"s": "TkhXQw=="}, "strides": {"list": {"i": ["1", "2", "2", "1"]}}, "padding": {"s": "VkFMSUQ="}, "T": {"type": "DT_FLOAT"}, "ksize": {"list": {"i": ["1", "2", "2", "1"]}}}}, {"name": "ssr_G_model/activation_4/Relu", "op": "_FusedConv2D", "input": ["ssr_G_model/separable_conv2d_4/separable_conv2d/depthwise", "ssr_G_model/separable_conv2d_4/separable_conv2d_weights", "ssr_G_model/separable_conv2d_4/separable_conv2d_bn_offset"], "device": "/device:CPU:0", "attr": {"explicit_paddings": {"list": {}}, "padding": {"s": "VkFMSUQ="}, "epsilon": {"f": 0.0}, "use_cudnn_on_gpu": {"b": true}, "num_args": {"i": "1"}, "data_format": {"s": "TkhXQw=="}, "strides": {"list": {"i": ["1", "1", "1", "1"]}}, "T": {"type": "DT_FLOAT"}, "fused_ops": {"list": {"s": ["Qmlhc0FkZA==", "UmVsdQ=="]}}, "dilations": {"list": {"i": ["1", "1", "1", "1"]}}}}, {"name": "ssr_G_model/activation_10/Tanh", "op": "Tanh", "input": ["ssr_G_model/max_pooling2d_2/MaxPool"], "attr": {"T": {"type": "DT_FLOAT"}}}, {"name": "ssr_G_model/separable_conv2d_5/separable_conv2d/depthwise", "op": "DepthwiseConv2dNative", "input": ["ssr_G_model/activation_4/Relu", "separable_conv2d_5/depthwise_kernel"], "attr": {"data_format": {"s": "TkhXQw=="}, "explicit_paddings": {"list": {}}, "padding": {"s": "U0FNRQ=="}, "dilations": {"list": {"i": ["1", "1", "1", "1"]}}, "T": {"type": "DT_FLOAT"}, "strides": {"list": {"i": ["1", "1", "1", "1"]}}}}, {"name": "ssr_G_model/separable_conv2d_11/separable_conv2d/depthwise", "op": "DepthwiseConv2dNative", "input": ["ssr_G_model/activation_10/Tanh", "separable_conv2d_11/depthwise_kernel"], "attr": {"strides": {"list": {"i": ["1", "1", "1", "1"]}}, "padding": {"s": "U0FNRQ=="}, "dilations": {"list": {"i": ["1", "1", "1", "1"]}}, "data_format": {"s": "TkhXQw=="}, "explicit_paddings": {"list": {}}, "T": {"type": "DT_FLOAT"}}}, {"name": "ssr_G_model/conv2d_5/BiasAdd", "op": "_FusedConv2D", "input": ["ssr_G_model/activation_10/Tanh", "conv2d_5/kernel", "conv2d_5/bias"], "device": "/device:CPU:0", "attr": {"fused_ops": {"list": {"s": ["Qmlhc0FkZA=="]}}, "dilations": {"list": {"i": ["1", "1", "1", "1"]}}, "padding": {"s": "VkFMSUQ="}, "data_format": {"s": "TkhXQw=="}, "explicit_paddings": {"list": {}}, "epsilon": {"f": 0.0}, "use_cudnn_on_gpu": {"b": true}, "num_args": {"i": "1"}, "T": {"type": "DT_FLOAT"}, "strides": {"list": {"i": ["1", "1", "1", "1"]}}}}, {"name": "ssr_G_model/activation_5/Relu", "op": "_FusedConv2D", "input": ["ssr_G_model/separable_conv2d_5/separable_conv2d/depthwise", "ssr_G_model/separable_conv2d_5/separable_conv2d_weights", "ssr_G_model/separable_conv2d_5/separable_conv2d_bn_offset"], "device": "/device:CPU:0", "attr": {"dilations": {"list": {"i": ["1", "1", "1", "1"]}}, "strides": {"list": {"i": ["1", "1", "1", "1"]}}, "epsilon": {"f": 0.0}, "fused_ops": {"list": {"s": ["Qmlhc0FkZA==", "UmVsdQ=="]}}, "explicit_paddings": {"list": {}}, "num_args": {"i": "1"}, "use_cudnn_on_gpu": {"b": true}, "padding": {"s": "VkFMSUQ="}, "data_format": {"s": "TkhXQw=="}, "T": {"type": "DT_FLOAT"}}}, {"name": "ssr_G_model/batch_normalization_11/FusedBatchNorm_1", "op": "_FusedConv2D", "input": ["ssr_G_model/separable_conv2d_11/separable_conv2d/depthwise", "ssr_G_model/separable_conv2d_11/separable_conv2d_weights", "ssr_G_model/separable_conv2d_11/separable_conv2d_bn_offset"], "device": "/device:CPU:0", "attr": {"explicit_paddings": {"list": {}}, "num_args": {"i": "1"}, "strides": {"list": {"i": ["1", "1", "1", "1"]}}, "use_cudnn_on_gpu": {"b": true}, "epsilon": {"f": 0.0}, "T": {"type": "DT_FLOAT"}, "dilations": {"list": {"i": ["1", "1", "1", "1"]}}, "data_format": {"s": "TkhXQw=="}, "fused_ops": {"list": {"s": ["Qmlhc0FkZA=="]}}, "padding": {"s": "VkFMSUQ="}}}, {"name": "ssr_G_model/conv2d_5/Tanh", "op": "Tanh", "input": ["ssr_G_model/conv2d_5/BiasAdd"], "attr": {"T": {"type": "DT_FLOAT"}}}, {"name": "ssr_G_model/average_pooling2d_3/AvgPool", "op": "AvgPool", "input": ["ssr_G_model/activation_5/Relu"], "attr": {"strides": {"list": {"i": ["1", "2", "2", "1"]}}, "T": {"type": "DT_FLOAT"}, "ksize": {"list": {"i": ["1", "2", "2", "1"]}}, "padding": {"s": "VkFMSUQ="}, "data_format": {"s": "TkhXQw=="}}}, {"name": "ssr_G_model/activation_11/Tanh", "op": "Tanh", "input": ["ssr_G_model/batch_normalization_11/FusedBatchNorm_1"], "attr": {"T": {"type": "DT_FLOAT"}}}, {"name": "ssr_G_model/multiply_3/mul", "op": "Mul", "input": ["ssr_G_model/conv2d_5/Tanh", "ssr_G_model/conv2d_6/Relu"], "attr": {"T": {"type": "DT_FLOAT"}}}, {"name": "ssr_G_model/separable_conv2d_6/separable_conv2d/depthwise", "op": "DepthwiseConv2dNative", "input": ["ssr_G_model/average_pooling2d_3/AvgPool", "separable_conv2d_6/depthwise_kernel"], "attr": {"data_format": {"s": "TkhXQw=="}, "T": {"type": "DT_FLOAT"}, "padding": {"s": "U0FNRQ=="}, "explicit_paddings": {"list": {}}, "strides": {"list": {"i": ["1", "1", "1", "1"]}}, "dilations": {"list": {"i": ["1", "1", "1", "1"]}}}}, {"name": "ssr_G_model/conv2d_4/Relu", "op": "_FusedConv2D", "input": ["ssr_G_model/average_pooling2d_3/AvgPool", "conv2d_4/kernel", "conv2d_4/bias"], "device": "/device:CPU:0", "attr": {"padding": {"s": "VkFMSUQ="}, "data_format": {"s": "TkhXQw=="}, "explicit_paddings": {"list": {}}, "epsilon": {"f": 0.0}, "num_args": {"i": "1"}, "fused_ops": {"list": {"s": ["Qmlhc0FkZA==", "UmVsdQ=="]}}, "T": {"type": "DT_FLOAT"}, "strides": {"list": {"i": ["1", "1", "1", "1"]}}, "dilations": {"list": {"i": ["1", "1", "1", "1"]}}, "use_cudnn_on_gpu": {"b": true}}}, {"name": "ssr_G_model/separable_conv2d_12/separable_conv2d/depthwise", "op": "DepthwiseConv2dNative", "input": ["ssr_G_model/activation_11/Tanh", "separable_conv2d_12/depthwise_kernel"], "attr": {"strides": {"list": {"i": ["1", "1", "1", "1"]}}, "explicit_paddings": {"list": {}}, "T": {"type": "DT_FLOAT"}, "padding": {"s": "U0FNRQ=="}, "dilations": {"list": {"i": ["1", "1", "1", "1"]}}, "data_format": {"s": "TkhXQw=="}}}, {"name": "ssr_G_model/average_pooling2d_4/AvgPool", "op": "AvgPool", "input": ["ssr_G_model/multiply_3/mul"], "attr": {"ksize": {"list": {"i": ["1", "2", "2", "1"]}}, "T": {"type": "DT_FLOAT"}, "padding": {"s": "VkFMSUQ="}, "strides": {"list": {"i": ["1", "2", "2", "1"]}}, "data_format": {"s": "TkhXQw=="}}}, {"name": "ssr_G_model/activation_6/Relu", "op": "_FusedConv2D", "input": ["ssr_G_model/separable_conv2d_6/separable_conv2d/depthwise", "ssr_G_model/separable_conv2d_6/separable_conv2d_weights", "ssr_G_model/separable_conv2d_6/separable_conv2d_bn_offset"], "device": "/device:CPU:0", "attr": {"epsilon": {"f": 0.0}, "padding": {"s": "VkFMSUQ="}, "explicit_paddings": {"list": {}}, "data_format": {"s": "TkhXQw=="}, "fused_ops": {"list": {"s": ["Qmlhc0FkZA==", "UmVsdQ=="]}}, "T": {"type": "DT_FLOAT"}, "num_args": {"i": "1"}, "use_cudnn_on_gpu": {"b": true}, "dilations": {"list": {"i": ["1", "1", "1", "1"]}}, "strides": {"list": {"i": ["1", "1", "1", "1"]}}}}, {"name": "ssr_G_model/batch_normalization_12/FusedBatchNorm_1", "op": "_FusedConv2D", "input": ["ssr_G_model/separable_conv2d_12/separable_conv2d/depthwise", "ssr_G_model/separable_conv2d_12/separable_conv2d_weights", "ssr_G_model/separable_conv2d_12/separable_conv2d_bn_offset"], "device": "/device:CPU:0", "attr": {"dilations": {"list": {"i": ["1", "1", "1", "1"]}}, "padding": {"s": "VkFMSUQ="}, "explicit_paddings": {"list": {}}, "epsilon": {"f": 0.0}, "num_args": {"i": "1"}, "strides": {"list": {"i": ["1", "1", "1", "1"]}}, "T": {"type": "DT_FLOAT"}, "data_format": {"s": "TkhXQw=="}, "use_cudnn_on_gpu": {"b": true}, "fused_ops": {"list": {"s": ["Qmlhc0FkZA=="]}}}}, {"name": "ssr_S_model/reshape_6/Shape", "op": "Shape", "input": ["ssr_G_model/average_pooling2d_4/AvgPool"], "attr": {"out_type": {"type": "DT_INT32"}, "T": {"type": "DT_FLOAT"}}}, {"name": "ssr_S_model/feat_S_model/conv2d_7/BiasAdd", "op": "_FusedConv2D", "input": ["ssr_G_model/average_pooling2d_4/AvgPool", "conv2d_7/kernel", "conv2d_7/bias"], "device": "/device:CPU:0", "attr": {"T": {"type": "DT_FLOAT"}, "fused_ops": {"list": {"s": ["Qmlhc0FkZA=="]}}, "dilations": {"list": {"i": ["1", "1", "1", "1"]}}, "explicit_paddings": {"list": {}}, "use_cudnn_on_gpu": {"b": true}, "padding": {"s": "U0FNRQ=="}, "num_args": {"i": "1"}, "epsilon": {"f": 0.0}, "strides": {"list": {"i": ["1", "1", "1", "1"]}}, "data_format": {"s": "TkhXQw=="}}}, {"name": "ssr_G_model/separable_conv2d_7/separable_conv2d/depthwise", "op": "DepthwiseConv2dNative", "input": ["ssr_G_model/activation_6/Relu", "separable_conv2d_7/depthwise_kernel"], "attr": {"explicit_paddings": {"list": {}}, "data_format": {"s": "TkhXQw=="}, "dilations": {"list": {"i": ["1", "1", "1", "1"]}}, "padding": {"s": "U0FNRQ=="}, "T": {"type": "DT_FLOAT"}, "strides": {"list": {"i": ["1", "1", "1", "1"]}}}}, {"name": "ssr_G_model/max_pooling2d_3/MaxPool", "op": "MaxPool", "input": ["ssr_G_model/batch_normalization_12/FusedBatchNorm_1"], "attr": {"strides": {"list": {"i": ["1", "2", "2", "1"]}}, "T": {"type": "DT_FLOAT"}, "padding": {"s": "VkFMSUQ="}, "data_format": {"s": "TkhXQw=="}, "ksize": {"list": {"i": ["1", "2", "2", "1"]}}}}, {"name": "ssr_S_model/reshape_6/strided_slice", "op": "StridedSlice", "input": ["ssr_S_model/reshape_6/Shape", "ssr_S_model/reshape_6/strided_slice/stack", "ssr_S_model/reshape_6/strided_slice/stack_1", "ssr_S_model/reshape_6/strided_slice/stack_2"], "attr": {"Index": {"type": "DT_INT32"}, "new_axis_mask": {"i": "0"}, "end_mask": {"i": "0"}, "begin_mask": {"i": "0"}, "ellipsis_mask": {"i": "0"}, "T": {"type": "DT_INT32"}, "shrink_axis_mask": {"i": "1"}}}, {"name": "ssr_S_model/feat_S_model/conv2d_7/Sigmoid", "op": "Sigmoid", "input": ["ssr_S_model/feat_S_model/conv2d_7/BiasAdd"], "attr": {"T": {"type": "DT_FLOAT"}}}, {"name": "ssr_G_model/activation_7/Relu", "op": "_FusedConv2D", "input": ["ssr_G_model/separable_conv2d_7/separable_conv2d/depthwise", "ssr_G_model/separable_conv2d_7/separable_conv2d_weights", "ssr_G_model/separable_conv2d_7/separable_conv2d_bn_offset"], "device": "/device:CPU:0", "attr": {"fused_ops": {"list": {"s": ["Qmlhc0FkZA==", "UmVsdQ=="]}}, "use_cudnn_on_gpu": {"b": true}, "num_args": {"i": "1"}, "dilations": {"list": {"i": ["1", "1", "1", "1"]}}, "T": {"type": "DT_FLOAT"}, "explicit_paddings": {"list": {}}, "strides": {"list": {"i": ["1", "1", "1", "1"]}}, "epsilon": {"f": 0.0}, "data_format": {"s": "TkhXQw=="}, "padding": {"s": "VkFMSUQ="}}}, {"name": "ssr_G_model/activation_12/Tanh", "op": "Tanh", "input": ["ssr_G_model/max_pooling2d_3/MaxPool"], "attr": {"T": {"type": "DT_FLOAT"}}}, {"name": "ssr_S_model/reshape_6/Reshape/shape", "op": "Pack", "input": ["ssr_S_model/reshape_6/strided_slice", "ssr_S_model/reshape_6/Reshape/shape/1", "ssr_S_model/reshape_6/Reshape/shape/2"], "attr": {"N": {"i": "3"}, "axis": {"i": "0"}, "T": {"type": "DT_INT32"}}}, {"name": "ssr_S_model/feat_S_model/reshape_1/Shape", "op": "Shape", "input": ["ssr_S_model/feat_S_model/conv2d_7/Sigmoid"], "attr": {"out_type": {"type": "DT_INT32"}, "T": {"type": "DT_FLOAT"}}}, {"name": "ssr_G_model/conv2d_2/Relu", "op": "_FusedConv2D", "input": ["ssr_G_model/activation_7/Relu", "conv2d_2/kernel", "conv2d_2/bias"], "device": "/device:CPU:0", "attr": {"dilations": {"list": {"i": ["1", "1", "1", "1"]}}, "use_cudnn_on_gpu": {"b": true}, "explicit_paddings": {"list": {}}, "T": {"type": "DT_FLOAT"}, "epsilon": {"f": 0.0}, "num_args": {"i": "1"}, "strides": {"list": {"i": ["1", "1", "1", "1"]}}, "data_format": {"s": "TkhXQw=="}, "padding": {"s": "VkFMSUQ="}, "fused_ops": {"list": {"s": ["Qmlhc0FkZA==", "UmVsdQ=="]}}}}, {"name": "ssr_G_model/separable_conv2d_13/separable_conv2d/depthwise", "op": "DepthwiseConv2dNative", "input": ["ssr_G_model/activation_12/Tanh", "separable_conv2d_13/depthwise_kernel"], "attr": {"data_format": {"s": "TkhXQw=="}, "dilations": {"list": {"i": ["1", "1", "1", "1"]}}, "padding": {"s": "U0FNRQ=="}, "strides": {"list": {"i": ["1", "1", "1", "1"]}}, "T": {"type": "DT_FLOAT"}, "explicit_paddings": {"list": {}}}}, {"name": "ssr_G_model/conv2d_3/BiasAdd", "op": "_FusedConv2D", "input": ["ssr_G_model/activation_12/Tanh", "conv2d_3/kernel", "conv2d_3/bias"], "device": "/device:CPU:0", "attr": {"use_cudnn_on_gpu": {"b": true}, "explicit_paddings": {"list": {}}, "strides": {"list": {"i": ["1", "1", "1", "1"]}}, "dilations": {"list": {"i": ["1", "1", "1", "1"]}}, "T": {"type": "DT_FLOAT"}, "epsilon": {"f": 0.0}, "data_format": {"s": "TkhXQw=="}, "fused_ops": {"list": {"s": ["Qmlhc0FkZA=="]}}, "padding": {"s": "VkFMSUQ="}, "num_args": {"i": "1"}}}, {"name": "ssr_S_model/reshape_6/Reshape", "op": "Reshape", "input": ["ssr_G_model/average_pooling2d_4/AvgPool", "ssr_S_model/reshape_6/Reshape/shape"], "attr": {"Tshape": {"type": "DT_INT32"}, "T": {"type": "DT_FLOAT"}}}, {"name": "ssr_S_model/feat_S_model/reshape_1/strided_slice", "op": "StridedSlice", "input": ["ssr_S_model/feat_S_model/reshape_1/Shape", "ssr_S_model/feat_S_model/reshape_1/strided_slice/stack", "ssr_S_model/feat_S_model/reshape_1/strided_slice/stack_1", "ssr_S_model/feat_S_model/reshape_1/strided_slice/stack_2"], "attr": {"begin_mask": {"i": "0"}, "shrink_axis_mask": {"i": "1"}, "Index": {"type": "DT_INT32"}, "new_axis_mask": {"i": "0"}, "T": {"type": "DT_INT32"}, "end_mask": {"i": "0"}, "ellipsis_mask": {"i": "0"}}}, {"name": "ssr_G_model/batch_normalization_13/FusedBatchNorm_1", "op": "_FusedConv2D", "input": ["ssr_G_model/separable_conv2d_13/separable_conv2d/depthwise", "ssr_G_model/separable_conv2d_13/separable_conv2d_weights", "ssr_G_model/separable_conv2d_13/separable_conv2d_bn_offset"], "device": "/device:CPU:0", "attr": {"explicit_paddings": {"list": {}}, "strides": {"list": {"i": ["1", "1", "1", "1"]}}, "use_cudnn_on_gpu": {"b": true}, "fused_ops": {"list": {"s": ["Qmlhc0FkZA=="]}}, "padding": {"s": "VkFMSUQ="}, "T": {"type": "DT_FLOAT"}, "dilations": {"list": {"i": ["1", "1", "1", "1"]}}, "num_args": {"i": "1"}, "data_format": {"s": "TkhXQw=="}, "epsilon": {"f": 0.0}}}, {"name": "ssr_G_model/conv2d_3/Tanh", "op": "Tanh", "input": ["ssr_G_model/conv2d_3/BiasAdd"], "attr": {"T": {"type": "DT_FLOAT"}}}, {"name": "ssr_S_model/feat_S_model/reshape_1/Reshape/shape", "op": "Pack", "input": ["ssr_S_model/feat_S_model/reshape_1/strided_slice", "ssr_S_model/feat_S_model/reshape_1/Reshape/shape/1"], "attr": {"T": {"type": "DT_INT32"}, "axis": {"i": "0"}, "N": {"i": "2"}}}, {"name": "ssr_G_model/activation_13/Tanh", "op": "Tanh", "input": ["ssr_G_model/batch_normalization_13/FusedBatchNorm_1"], "attr": {"T": {"type": "DT_FLOAT"}}}, {"name": "ssr_G_model/multiply_2/mul", "op": "Mul", "input": ["ssr_G_model/conv2d_3/Tanh", "ssr_G_model/conv2d_4/Relu"], "attr": {"T": {"type": "DT_FLOAT"}}}, {"name": "ssr_S_model/feat_S_model/reshape_1/Reshape", "op": "Reshape", "input": ["ssr_S_model/feat_S_model/conv2d_7/Sigmoid", "ssr_S_model/feat_S_model/reshape_1/Reshape/shape"], "attr": {"Tshape": {"type": "DT_INT32"}, "T": {"type": "DT_FLOAT"}}}, {"name": "ssr_G_model/separable_conv2d_14/separable_conv2d/depthwise", "op": "DepthwiseConv2dNative", "input": ["ssr_G_model/activation_13/Tanh", "separable_conv2d_14/depthwise_kernel"], "attr": {"padding": {"s": "U0FNRQ=="}, "dilations": {"list": {"i": ["1", "1", "1", "1"]}}, "T": {"type": "DT_FLOAT"}, "explicit_paddings": {"list": {}}, "data_format": {"s": "TkhXQw=="}, "strides": {"list": {"i": ["1", "1", "1", "1"]}}}}, {"name": "ssr_S_model/reshape_5/Shape", "op": "Shape", "input": ["ssr_G_model/multiply_2/mul"], "attr": {"out_type": {"type": "DT_INT32"}, "T": {"type": "DT_FLOAT"}}}, {"name": "ssr_S_model/feat_S_model_1/conv2d_7/BiasAdd", "op": "_FusedConv2D", "input": ["ssr_G_model/multiply_2/mul", "conv2d_7/kernel", "conv2d_7/bias"], "device": "/device:CPU:0", "attr": {"explicit_paddings": {"list": {}}, "T": {"type": "DT_FLOAT"}, "epsilon": {"f": 0.0}, "padding": {"s": "U0FNRQ=="}, "num_args": {"i": "1"}, "use_cudnn_on_gpu": {"b": true}, "dilations": {"list": {"i": ["1", "1", "1", "1"]}}, "fused_ops": {"list": {"s": ["Qmlhc0FkZA=="]}}, "strides": {"list": {"i": ["1", "1", "1", "1"]}}, "data_format": {"s": "TkhXQw=="}}}, {"name": "ssr_S_model/feat_S_model/dense_1/BiasAdd", "op": "_FusedMatMul", "input": ["ssr_S_model/feat_S_model/reshape_1/Reshape", "dense_1/kernel", "dense_1/bias"], "device": "/device:CPU:0", "attr": {"transpose_a": {"b": false}, "num_args": {"i": "1"}, "T": {"type": "DT_FLOAT"}, "transpose_b": {"b": false}, "fused_ops": {"list": {"s": ["Qmlhc0FkZA=="]}}, "epsilon": {"f": 0.0}}}, {"name": "ssr_G_model/batch_normalization_14/FusedBatchNorm_1", "op": "_FusedConv2D", "input": ["ssr_G_model/separable_conv2d_14/separable_conv2d/depthwise", "ssr_G_model/separable_conv2d_14/separable_conv2d_weights", "ssr_G_model/separable_conv2d_14/separable_conv2d_bn_offset"], "device": "/device:CPU:0", "attr": {"fused_ops": {"list": {"s": ["Qmlhc0FkZA=="]}}, "num_args": {"i": "1"}, "epsilon": {"f": 0.0}, "data_format": {"s": "TkhXQw=="}, "use_cudnn_on_gpu": {"b": true}, "dilations": {"list": {"i": ["1", "1", "1", "1"]}}, "explicit_paddings": {"list": {}}, "T": {"type": "DT_FLOAT"}, "strides": {"list": {"i": ["1", "1", "1", "1"]}}, "padding": {"s": "VkFMSUQ="}}}, {"name": "ssr_S_model/reshape_5/strided_slice", "op": "StridedSlice", "input": ["ssr_S_model/reshape_5/Shape", "ssr_S_model/reshape_5/strided_slice/stack", "ssr_S_model/reshape_5/strided_slice/stack_1", "ssr_S_model/reshape_5/strided_slice/stack_2"], "attr": {"end_mask": {"i": "0"}, "T": {"type": "DT_INT32"}, "Index": {"type": "DT_INT32"}, "new_axis_mask": {"i": "0"}, "ellipsis_mask": {"i": "0"}, "shrink_axis_mask": {"i": "1"}, "begin_mask": {"i": "0"}}}, {"name": "ssr_S_model/feat_S_model_1/conv2d_7/Sigmoid", "op": "Sigmoid", "input": ["ssr_S_model/feat_S_model_1/conv2d_7/BiasAdd"], "attr": {"T": {"type": "DT_FLOAT"}}}, {"name": "ssr_S_model/feat_S_model/dense_1/Sigmoid", "op": "Sigmoid", "input": ["ssr_S_model/feat_S_model/dense_1/BiasAdd"], "attr": {"T": {"type": "DT_FLOAT"}}}, {"name": "ssr_G_model/activation_14/Tanh", "op": "Tanh", "input": ["ssr_G_model/batch_normalization_14/FusedBatchNorm_1"], "attr": {"T": {"type": "DT_FLOAT"}}}, {"name": "ssr_S_model/reshape_5/Reshape/shape", "op": "Pack", "input": ["ssr_S_model/reshape_5/strided_slice", "ssr_S_model/reshape_5/Reshape/shape/1", "ssr_S_model/reshape_5/Reshape/shape/2"], "attr": {"axis": {"i": "0"}, "T": {"type": "DT_INT32"}, "N": {"i": "3"}}}, {"name": "ssr_S_model/feat_S_model_1/reshape_1/Shape", "op": "Shape", "input": ["ssr_S_model/feat_S_model_1/conv2d_7/Sigmoid"], "attr": {"T": {"type": "DT_FLOAT"}, "out_type": {"type": "DT_INT32"}}}, {"name": "ssr_S_model/feat_S_model/reshape_2/Shape", "op": "Shape", "input": ["ssr_S_model/feat_S_model/dense_1/Sigmoid"], "attr": {"out_type": {"type": "DT_INT32"}, "T": {"type": "DT_FLOAT"}}}, {"name": "ssr_G_model/conv2d_1/BiasAdd", "op": "_FusedConv2D", "input": ["ssr_G_model/activation_14/Tanh", "conv2d_1/kernel", "conv2d_1/bias"], "device": "/device:CPU:0", "attr": {"fused_ops": {"list": {"s": ["Qmlhc0FkZA=="]}}, "num_args": {"i": "1"}, "padding": {"s": "VkFMSUQ="}, "T": {"type": "DT_FLOAT"}, "epsilon": {"f": 0.0}, "use_cudnn_on_gpu": {"b": true}, "strides": {"list": {"i": ["1", "1", "1", "1"]}}, "explicit_paddings": {"list": {}}, "data_format": {"s": "TkhXQw=="}, "dilations": {"list": {"i": ["1", "1", "1", "1"]}}}}, {"name": "ssr_S_model/reshape_5/Reshape", "op": "Reshape", "input": ["ssr_G_model/multiply_2/mul", "ssr_S_model/reshape_5/Reshape/shape"], "attr": {"Tshape": {"type": "DT_INT32"}, "T": {"type": "DT_FLOAT"}}}, {"name": "ssr_S_model/feat_S_model_1/reshape_1/strided_slice", "op": "StridedSlice", "input": ["ssr_S_model/feat_S_model_1/reshape_1/Shape", "ssr_S_model/feat_S_model_1/reshape_1/strided_slice/stack", "ssr_S_model/feat_S_model_1/reshape_1/strided_slice/stack_1", "ssr_S_model/feat_S_model_1/reshape_1/strided_slice/stack_2"], "attr": {"ellipsis_mask": {"i": "0"}, "shrink_axis_mask": {"i": "1"}, "Index": {"type": "DT_INT32"}, "begin_mask": {"i": "0"}, "end_mask": {"i": "0"}, "T": {"type": "DT_INT32"}, "new_axis_mask": {"i": "0"}}}, {"name": "ssr_S_model/feat_S_model/reshape_2/strided_slice", "op": "StridedSlice", "input": ["ssr_S_model/feat_S_model/reshape_2/Shape", "ssr_S_model/feat_S_model/reshape_2/strided_slice/stack", "ssr_S_model/feat_S_model/reshape_2/strided_slice/stack_1", "ssr_S_model/feat_S_model/reshape_2/strided_slice/stack_2"], "attr": {"new_axis_mask": {"i": "0"}, "T": {"type": "DT_INT32"}, "end_mask": {"i": "0"}, "shrink_axis_mask": {"i": "1"}, "Index": {"type": "DT_INT32"}, "ellipsis_mask": {"i": "0"}, "begin_mask": {"i": "0"}}}, {"name": "ssr_G_model/conv2d_1/Tanh", "op": "Tanh", "input": ["ssr_G_model/conv2d_1/BiasAdd"], "attr": {"T": {"type": "DT_FLOAT"}}}, {"name": "ssr_S_model/feat_S_model_1/reshape_1/Reshape/shape", "op": "Pack", "input": ["ssr_S_model/feat_S_model_1/reshape_1/strided_slice", "ssr_S_model/feat_S_model_1/reshape_1/Reshape/shape/1"], "attr": {"N": {"i": "2"}, "axis": {"i": "0"}, "T": {"type": "DT_INT32"}}}, {"name": "ssr_S_model/feat_S_model/reshape_2/Reshape/shape", "op": "Pack", "input": ["ssr_S_model/feat_S_model/reshape_2/strided_slice", "ssr_S_model/feat_S_model/reshape_2/Reshape/shape/1", "ssr_S_model/feat_S_model/reshape_2/Reshape/shape/2"], "attr": {"T": {"type": "DT_INT32"}, "axis": {"i": "0"}, "N": {"i": "3"}}}, {"name": "ssr_G_model/multiply_1/mul", "op": "Mul", "input": ["ssr_G_model/conv2d_1/Tanh", "ssr_G_model/conv2d_2/Relu"], "attr": {"T": {"type": "DT_FLOAT"}}}, {"name": "ssr_S_model/feat_S_model_1/reshape_1/Reshape", "op": "Reshape", "input": ["ssr_S_model/feat_S_model_1/conv2d_7/Sigmoid", "ssr_S_model/feat_S_model_1/reshape_1/Reshape/shape"], "attr": {"Tshape": {"type": "DT_INT32"}, "T": {"type": "DT_FLOAT"}}}, {"name": "ssr_S_model/feat_S_model/reshape_2/Reshape", "op": "Reshape", "input": ["ssr_S_model/feat_S_model/dense_1/Sigmoid", "ssr_S_model/feat_S_model/reshape_2/Reshape/shape"], "attr": {"T": {"type": "DT_FLOAT"}, "Tshape": {"type": "DT_INT32"}}}, {"name": "ssr_S_model/reshape_4/Shape", "op": "Shape", "input": ["ssr_G_model/multiply_1/mul"], "attr": {"out_type": {"type": "DT_INT32"}, "T": {"type": "DT_FLOAT"}}}, {"name": "ssr_S_model/feat_S_model_2/conv2d_7/BiasAdd", "op": "_FusedConv2D", "input": ["ssr_G_model/multiply_1/mul", "conv2d_7/kernel", "conv2d_7/bias"], "device": "/device:CPU:0", "attr": {"fused_ops": {"list": {"s": ["Qmlhc0FkZA=="]}}, "data_format": {"s": "TkhXQw=="}, "dilations": {"list": {"i": ["1", "1", "1", "1"]}}, "padding": {"s": "U0FNRQ=="}, "num_args": {"i": "1"}, "use_cudnn_on_gpu": {"b": true}, "T": {"type": "DT_FLOAT"}, "strides": {"list": {"i": ["1", "1", "1", "1"]}}, "explicit_paddings": {"list": {}}, "epsilon": {"f": 0.0}}}, {"name": "ssr_S_model/feat_S_model_1/dense_1/BiasAdd", "op": "_FusedMatMul", "input": ["ssr_S_model/feat_S_model_1/reshape_1/Reshape", "dense_1/kernel", "dense_1/bias"], "device": "/device:CPU:0", "attr": {"T": {"type": "DT_FLOAT"}, "transpose_a": {"b": false}, "num_args": {"i": "1"}, "epsilon": {"f": 0.0}, "fused_ops": {"list": {"s": ["Qmlhc0FkZA=="]}}, "transpose_b": {"b": false}}}, {"name": "ssr_S_model/reshape_4/strided_slice", "op": "StridedSlice", "input": ["ssr_S_model/reshape_4/Shape", "ssr_S_model/reshape_4/strided_slice/stack", "ssr_S_model/reshape_4/strided_slice/stack_1", "ssr_S_model/reshape_4/strided_slice/stack_2"], "attr": {"end_mask": {"i": "0"}, "shrink_axis_mask": {"i": "1"}, "begin_mask": {"i": "0"}, "T": {"type": "DT_INT32"}, "ellipsis_mask": {"i": "0"}, "Index": {"type": "DT_INT32"}, "new_axis_mask": {"i": "0"}}}, {"name": "ssr_S_model/feat_S_model_2/conv2d_7/Sigmoid", "op": "Sigmoid", "input": ["ssr_S_model/feat_S_model_2/conv2d_7/BiasAdd"], "attr": {"T": {"type": "DT_FLOAT"}}}, {"name": "ssr_S_model/feat_S_model_1/dense_1/Sigmoid", "op": "Sigmoid", "input": ["ssr_S_model/feat_S_model_1/dense_1/BiasAdd"], "attr": {"T": {"type": "DT_FLOAT"}}}, {"name": "ssr_S_model/reshape_4/Reshape/shape", "op": "Pack", "input": ["ssr_S_model/reshape_4/strided_slice", "ssr_S_model/reshape_4/Reshape/shape/1", "ssr_S_model/reshape_4/Reshape/shape/2"], "attr": {"N": {"i": "3"}, "axis": {"i": "0"}, "T": {"type": "DT_INT32"}}}, {"name": "ssr_S_model/feat_S_model_2/reshape_1/Shape", "op": "Shape", "input": ["ssr_S_model/feat_S_model_2/conv2d_7/Sigmoid"], "attr": {"T": {"type": "DT_FLOAT"}, "out_type": {"type": "DT_INT32"}}}, {"name": "ssr_S_model/feat_S_model_1/reshape_2/Shape", "op": "Shape", "input": ["ssr_S_model/feat_S_model_1/dense_1/Sigmoid"], "attr": {"out_type": {"type": "DT_INT32"}, "T": {"type": "DT_FLOAT"}}}, {"name": "ssr_S_model/reshape_4/Reshape", "op": "Reshape", "input": ["ssr_G_model/multiply_1/mul", "ssr_S_model/reshape_4/Reshape/shape"], "attr": {"T": {"type": "DT_FLOAT"}, "Tshape": {"type": "DT_INT32"}}}, {"name": "ssr_S_model/feat_S_model_2/reshape_1/strided_slice", "op": "StridedSlice", "input": ["ssr_S_model/feat_S_model_2/reshape_1/Shape", "ssr_S_model/feat_S_model_2/reshape_1/strided_slice/stack", "ssr_S_model/feat_S_model_2/reshape_1/strided_slice/stack_1", "ssr_S_model/feat_S_model_2/reshape_1/strided_slice/stack_2"], "attr": {"new_axis_mask": {"i": "0"}, "T": {"type": "DT_INT32"}, "shrink_axis_mask": {"i": "1"}, "end_mask": {"i": "0"}, "Index": {"type": "DT_INT32"}, "ellipsis_mask": {"i": "0"}, "begin_mask": {"i": "0"}}}, {"name": "ssr_S_model/feat_S_model_1/reshape_2/strided_slice", "op": "StridedSlice", "input": ["ssr_S_model/feat_S_model_1/reshape_2/Shape", "ssr_S_model/feat_S_model_1/reshape_2/strided_slice/stack", "ssr_S_model/feat_S_model_1/reshape_2/strided_slice/stack_1", "ssr_S_model/feat_S_model_1/reshape_2/strided_slice/stack_2"], "attr": {"end_mask": {"i": "0"}, "new_axis_mask": {"i": "0"}, "Index": {"type": "DT_INT32"}, "begin_mask": {"i": "0"}, "ellipsis_mask": {"i": "0"}, "shrink_axis_mask": {"i": "1"}, "T": {"type": "DT_INT32"}}}, {"name": "ssr_S_model/concatenate_2/concat", "op": "ConcatV2", "input": ["ssr_S_model/reshape_4/Reshape", "ssr_S_model/reshape_5/Reshape", "ssr_S_model/reshape_6/Reshape", "ssr_S_model/concatenate_2/concat/axis"], "attr": {"N": {"i": "3"}, "Tidx": {"type": "DT_INT32"}, "T": {"type": "DT_FLOAT"}}}, {"name": "ssr_S_model/feat_S_model_2/reshape_1/Reshape/shape", "op": "Pack", "input": ["ssr_S_model/feat_S_model_2/reshape_1/strided_slice", "ssr_S_model/feat_S_model_2/reshape_1/Reshape/shape/1"], "attr": {"T": {"type": "DT_INT32"}, "axis": {"i": "0"}, "N": {"i": "2"}}}, {"name": "ssr_S_model/feat_S_model_1/reshape_2/Reshape/shape", "op": "Pack", "input": ["ssr_S_model/feat_S_model_1/reshape_2/strided_slice", "ssr_S_model/feat_S_model_1/reshape_2/Reshape/shape/1", "ssr_S_model/feat_S_model_1/reshape_2/Reshape/shape/2"], "attr": {"axis": {"i": "0"}, "N": {"i": "3"}, "T": {"type": "DT_INT32"}}}, {"name": "ssr_S_model/feat_S_model_2/reshape_1/Reshape", "op": "Reshape", "input": ["ssr_S_model/feat_S_model_2/conv2d_7/Sigmoid", "ssr_S_model/feat_S_model_2/reshape_1/Reshape/shape"], "attr": {"Tshape": {"type": "DT_INT32"}, "T": {"type": "DT_FLOAT"}}}, {"name": "ssr_S_model/feat_S_model_1/reshape_2/Reshape", "op": "Reshape", "input": ["ssr_S_model/feat_S_model_1/dense_1/Sigmoid", "ssr_S_model/feat_S_model_1/reshape_2/Reshape/shape"], "attr": {"Tshape": {"type": "DT_INT32"}, "T": {"type": "DT_FLOAT"}}}, {"name": "ssr_S_model/feat_S_model_2/dense_1/BiasAdd", "op": "_FusedMatMul", "input": ["ssr_S_model/feat_S_model_2/reshape_1/Reshape", "dense_1/kernel", "dense_1/bias"], "device": "/device:CPU:0", "attr": {"epsilon": {"f": 0.0}, "transpose_a": {"b": false}, "transpose_b": {"b": false}, "fused_ops": {"list": {"s": ["Qmlhc0FkZA=="]}}, "num_args": {"i": "1"}, "T": {"type": "DT_FLOAT"}}}, {"name": "ssr_S_model/concatenate_1/concat", "op": "ConcatV2", "input": ["ssr_S_model/feat_S_model_2/reshape_1/Reshape", "ssr_S_model/feat_S_model_1/reshape_1/Reshape", "ssr_S_model/feat_S_model/reshape_1/Reshape", "ssr_S_model/concatenate_1/concat/axis"], "attr": {"Tidx": {"type": "DT_INT32"}, "T": {"type": "DT_FLOAT"}, "N": {"i": "3"}}}, {"name": "ssr_S_model/feat_S_model_2/dense_1/Sigmoid", "op": "Sigmoid", "input": ["ssr_S_model/feat_S_model_2/dense_1/BiasAdd"], "attr": {"T": {"type": "DT_FLOAT"}}}, {"name": "ssr_S_model/dense_2/BiasAdd", "op": "_FusedMatMul", "input": ["ssr_S_model/concatenate_1/concat", "dense_2/kernel", "dense_2/bias"], "device": "/device:CPU:0", "attr": {"fused_ops": {"list": {"s": ["Qmlhc0FkZA=="]}}, "transpose_a": {"b": false}, "epsilon": {"f": 0.0}, "transpose_b": {"b": false}, "num_args": {"i": "1"}, "T": {"type": "DT_FLOAT"}}}, {"name": "ssr_S_model/feat_S_model_2/reshape_2/Shape", "op": "Shape", "input": ["ssr_S_model/feat_S_model_2/dense_1/Sigmoid"], "attr": {"T": {"type": "DT_FLOAT"}, "out_type": {"type": "DT_INT32"}}}, {"name": "ssr_S_model/dense_2/Sigmoid", "op": "Sigmoid", "input": ["ssr_S_model/dense_2/BiasAdd"], "attr": {"T": {"type": "DT_FLOAT"}}}, {"name": "ssr_S_model/feat_S_model_2/reshape_2/strided_slice", "op": "StridedSlice", "input": ["ssr_S_model/feat_S_model_2/reshape_2/Shape", "ssr_S_model/feat_S_model_2/reshape_2/strided_slice/stack", "ssr_S_model/feat_S_model_2/reshape_2/strided_slice/stack_1", "ssr_S_model/feat_S_model_2/reshape_2/strided_slice/stack_2"], "attr": {"shrink_axis_mask": {"i": "1"}, "ellipsis_mask": {"i": "0"}, "Index": {"type": "DT_INT32"}, "new_axis_mask": {"i": "0"}, "T": {"type": "DT_INT32"}, "end_mask": {"i": "0"}, "begin_mask": {"i": "0"}}}, {"name": "ssr_S_model/reshape_3/Shape", "op": "Shape", "input": ["ssr_S_model/dense_2/Sigmoid"], "attr": {"out_type": {"type": "DT_INT32"}, "T": {"type": "DT_FLOAT"}}}, {"name": "ssr_S_model/feat_S_model_2/reshape_2/Reshape/shape", "op": "Pack", "input": ["ssr_S_model/feat_S_model_2/reshape_2/strided_slice", "ssr_S_model/feat_S_model_2/reshape_2/Reshape/shape/1", "ssr_S_model/feat_S_model_2/reshape_2/Reshape/shape/2"], "attr": {"axis": {"i": "0"}, "T": {"type": "DT_INT32"}, "N": {"i": "3"}}}, {"name": "ssr_S_model/reshape_3/strided_slice", "op": "StridedSlice", "input": ["ssr_S_model/reshape_3/Shape", "ssr_S_model/reshape_3/strided_slice/stack", "ssr_S_model/reshape_3/strided_slice/stack_1", "ssr_S_model/reshape_3/strided_slice/stack_2"], "attr": {"begin_mask": {"i": "0"}, "Index": {"type": "DT_INT32"}, "end_mask": {"i": "0"}, "new_axis_mask": {"i": "0"}, "shrink_axis_mask": {"i": "1"}, "T": {"type": "DT_INT32"}, "ellipsis_mask": {"i": "0"}}}, {"name": "ssr_S_model/feat_S_model_2/reshape_2/Reshape", "op": "Reshape", "input": ["ssr_S_model/feat_S_model_2/dense_1/Sigmoid", "ssr_S_model/feat_S_model_2/reshape_2/Reshape/shape"], "attr": {"T": {"type": "DT_FLOAT"}, "Tshape": {"type": "DT_INT32"}}}, {"name": "ssr_S_model/reshape_3/Reshape/shape", "op": "Pack", "input": ["ssr_S_model/reshape_3/strided_slice", "ssr_S_model/reshape_3/Reshape/shape/1", "ssr_S_model/reshape_3/Reshape/shape/2"], "attr": {"axis": {"i": "0"}, "T": {"type": "DT_INT32"}, "N": {"i": "3"}}}, {"name": "ssr_S_model/reshape_3/Reshape", "op": "Reshape", "input": ["ssr_S_model/dense_2/Sigmoid", "ssr_S_model/reshape_3/Reshape/shape"], "attr": {"Tshape": {"type": "DT_INT32"}, "T": {"type": "DT_FLOAT"}}}, {"name": "ssr_S_model/S_matrix_s1/MatMul", "op": "BatchMatMulV2", "input": ["ssr_S_model/reshape_3/Reshape", "ssr_S_model/feat_S_model_2/reshape_2/Reshape"], "attr": {"adj_x": {"b": false}, "T": {"type": "DT_FLOAT"}, "adj_y": {"b": false}}}, {"name": "ssr_S_model/S_matrix_s2/MatMul", "op": "BatchMatMulV2", "input": ["ssr_S_model/reshape_3/Reshape", "ssr_S_model/feat_S_model_1/reshape_2/Reshape"], "attr": {"adj_x": {"b": false}, "adj_y": {"b": false}, "T": {"type": "DT_FLOAT"}}}, {"name": "ssr_S_model/S_matrix_s3/MatMul", "op": "BatchMatMulV2", "input": ["ssr_S_model/reshape_3/Reshape", "ssr_S_model/feat_S_model/reshape_2/Reshape"], "attr": {"adj_x": {"b": false}, "T": {"type": "DT_FLOAT"}, "adj_y": {"b": false}}}, {"name": "ssr_S_model/matrix_norm_layer_1/Sum", "op": "Sum", "input": ["ssr_S_model/S_matrix_s1/MatMul", "ssr_S_model/matrix_norm_layer_1/Sum/reduction_indices"], "attr": {"keep_dims": {"b": true}, "T": {"type": "DT_FLOAT"}, "Tidx": {"type": "DT_INT32"}}}, {"name": "ssr_S_model/prim_caps_layer_1/MatMul", "op": "BatchMatMulV2", "input": ["ssr_S_model/S_matrix_s1/MatMul", "ssr_S_model/concatenate_2/concat"], "attr": {"T": {"type": "DT_FLOAT"}, "adj_y": {"b": false}, "adj_x": {"b": false}}}, {"name": "ssr_S_model/matrix_norm_layer_2/Sum", "op": "Sum", "input": ["ssr_S_model/S_matrix_s2/MatMul", "ssr_S_model/matrix_norm_layer_2/Sum/reduction_indices"], "attr": {"T": {"type": "DT_FLOAT"}, "keep_dims": {"b": true}, "Tidx": {"type": "DT_INT32"}}}, {"name": "ssr_S_model/prim_caps_layer_2/MatMul", "op": "BatchMatMulV2", "input": ["ssr_S_model/S_matrix_s2/MatMul", "ssr_S_model/concatenate_2/concat"], "attr": {"adj_x": {"b": false}, "adj_y": {"b": false}, "T": {"type": "DT_FLOAT"}}}, {"name": "ssr_S_model/matrix_norm_layer_3/Sum", "op": "Sum", "input": ["ssr_S_model/S_matrix_s3/MatMul", "ssr_S_model/matrix_norm_layer_3/Sum/reduction_indices"], "attr": {"Tidx": {"type": "DT_INT32"}, "keep_dims": {"b": true}, "T": {"type": "DT_FLOAT"}}}, {"name": "ssr_S_model/prim_caps_layer_3/MatMul", "op": "BatchMatMulV2", "input": ["ssr_S_model/S_matrix_s3/MatMul", "ssr_S_model/concatenate_2/concat"], "attr": {"T": {"type": "DT_FLOAT"}, "adj_y": {"b": false}, "adj_x": {"b": false}}}, {"name": "ssr_S_model/matrix_norm_layer_1/Tile", "op": "Tile", "input": ["ssr_S_model/matrix_norm_layer_1/Sum", "ssr_S_model/matrix_norm_layer_1/Tile/multiples"], "attr": {"Tmultiples": {"type": "DT_INT32"}, "T": {"type": "DT_FLOAT"}}}, {"name": "ssr_S_model/matrix_norm_layer_2/Tile", "op": "Tile", "input": ["ssr_S_model/matrix_norm_layer_2/Sum", "ssr_S_model/matrix_norm_layer_2/Tile/multiples"], "attr": {"Tmultiples": {"type": "DT_INT32"}, "T": {"type": "DT_FLOAT"}}}, {"name": "ssr_S_model/matrix_norm_layer_3/Tile", "op": "Tile", "input": ["ssr_S_model/matrix_norm_layer_3/Sum", "ssr_S_model/matrix_norm_layer_3/Tile/multiples"], "attr": {"T": {"type": "DT_FLOAT"}, "Tmultiples": {"type": "DT_INT32"}}}, {"name": "ssr_S_model/prim_caps_layer_1/truediv", "op": "RealDiv", "input": ["ssr_S_model/prim_caps_layer_1/MatMul", "ssr_S_model/matrix_norm_layer_1/Tile"], "attr": {"T": {"type": "DT_FLOAT"}}}, {"name": "ssr_S_model/prim_caps_layer_2/truediv", "op": "RealDiv", "input": ["ssr_S_model/prim_caps_layer_2/MatMul", "ssr_S_model/matrix_norm_layer_2/Tile"], "attr": {"T": {"type": "DT_FLOAT"}}}, {"name": "ssr_S_model/prim_caps_layer_3/truediv", "op": "RealDiv", "input": ["ssr_S_model/prim_caps_layer_3/MatMul", "ssr_S_model/matrix_norm_layer_3/Tile"], "attr": {"T": {"type": "DT_FLOAT"}}}, {"name": "ssr_S_model/concatenate_3/concat", "op": "ConcatV2", "input": ["ssr_S_model/prim_caps_layer_1/truediv", "ssr_S_model/prim_caps_layer_2/truediv", "ssr_S_model/prim_caps_layer_3/truediv", "ssr_S_model/concatenate_3/concat/axis"], "attr": {"T": {"type": "DT_FLOAT"}, "N": {"i": "3"}, "Tidx": {"type": "DT_INT32"}}}, {"name": "ssr_Cap_model/caps/ExpandDims", "op": "ExpandDims", "input": ["ssr_S_model/concatenate_3/concat", "ssr_Cap_model/caps/ExpandDims/dim"], "attr": {"T": {"type": "DT_FLOAT"}, "Tdim": {"type": "DT_INT32"}}}, {"name": "ssr_Cap_model/caps/Tile", "op": "Tile", "input": ["ssr_Cap_model/caps/ExpandDims", "ssr_Cap_model/caps/Tile/multiples"], "attr": {"T": {"type": "DT_FLOAT"}, "Tmultiples": {"type": "DT_INT32"}}}, {"name": "ssr_Cap_model/caps/map/TensorArrayUnstack/Shape", "op": "Shape", "input": ["ssr_Cap_model/caps/Tile"], "attr": {"T": {"type": "DT_FLOAT"}, "out_type": {"type": "DT_INT32"}}}, {"name": "ssr_Cap_model/caps/map/Shape", "op": "Shape", "input": ["ssr_Cap_model/caps/Tile"], "attr": {"out_type": {"type": "DT_INT32"}, "T": {"type": "DT_FLOAT"}}}, {"name": "ssr_Cap_model/caps/map/TensorArrayUnstack/strided_slice", "op": "StridedSlice", "input": ["ssr_Cap_model/caps/map/TensorArrayUnstack/Shape", "ssr_Cap_model/caps/map/TensorArrayUnstack/strided_slice/stack", "ssr_Cap_model/caps/map/TensorArrayUnstack/strided_slice/stack_1", "ssr_Cap_model/caps/map/TensorArrayUnstack/strided_slice/stack_2"], "attr": {"begin_mask": {"i": "0"}, "T": {"type": "DT_INT32"}, "ellipsis_mask": {"i": "0"}, "Index": {"type": "DT_INT32"}, "shrink_axis_mask": {"i": "1"}, "new_axis_mask": {"i": "0"}, "end_mask": {"i": "0"}}}, {"name": "ssr_Cap_model/caps/map/strided_slice", "op": "StridedSlice", "input": ["ssr_Cap_model/caps/map/Shape", "ssr_Cap_model/caps/map/strided_slice/stack", "ssr_Cap_model/caps/map/strided_slice/stack_1", "ssr_Cap_model/caps/map/strided_slice/stack_2"], "attr": {"Index": {"type": "DT_INT32"}, "ellipsis_mask": {"i": "0"}, "new_axis_mask": {"i": "0"}, "end_mask": {"i": "0"}, "T": {"type": "DT_INT32"}, "begin_mask": {"i": "0"}, "shrink_axis_mask": {"i": "1"}}}, {"name": "ssr_Cap_model/caps/map/TensorArrayUnstack/range", "op": "Range", "input": ["ssr_Cap_model/caps/map/TensorArrayUnstack/range/start", "ssr_Cap_model/caps/map/TensorArrayUnstack/strided_slice", "ssr_Cap_model/caps/map/TensorArrayUnstack/range/delta"], "attr": {"Tidx": {"type": "DT_INT32"}}}, {"name": "ssr_Cap_model/caps/map/TensorArray_1", "op": "TensorArrayV3", "input": ["ssr_Cap_model/caps/map/strided_slice"], "attr": {"dynamic_size": {"b": false}, "identical_element_shapes": {"b": true}, "element_shape": {"shape": {"unknownRank": true}}, "clear_after_read": {"b": true}, "dtype": {"type": "DT_FLOAT"}, "tensor_array_name": {"s": ""}}}, {"name": "ssr_Cap_model/caps/map/TensorArray", "op": "TensorArrayV3", "input": ["ssr_Cap_model/caps/map/strided_slice"], "attr": {"clear_after_read": {"b": true}, "tensor_array_name": {"s": ""}, "dtype": {"type": "DT_FLOAT"}, "identical_element_shapes": {"b": true}, "dynamic_size": {"b": false}, "element_shape": {"shape": {"unknownRank": true}}}}, {"name": "ssr_Cap_model/caps/map/while/Less/Enter", "op": "Enter", "input": ["ssr_Cap_model/caps/map/strided_slice"], "attr": {"is_constant": {"b": true}, "frame_name": {"s": "c3NyX0NhcF9tb2RlbC9jYXBzL21hcC93aGlsZS93aGlsZV9jb250ZXh0"}, "parallel_iterations": {"i": "10"}, "T": {"type": "DT_INT32"}}}, {"name": "ssr_Cap_model/caps/map/while/TensorArrayWrite/TensorArrayWriteV3/Enter", "op": "Enter", "input": ["ssr_Cap_model/caps/map/TensorArray_1"], "attr": {"T": {"type": "DT_RESOURCE"}, "frame_name": {"s": "c3NyX0NhcF9tb2RlbC9jYXBzL21hcC93aGlsZS93aGlsZV9jb250ZXh0"}, "parallel_iterations": {"i": "10"}, "is_constant": {"b": true}}}, {"name": "ssr_Cap_model/caps/map/while/Enter_2", "op": "Enter", "input": ["ssr_Cap_model/caps/map/TensorArray_1:1"], "attr": {"is_constant": {"b": false}, "frame_name": {"s": "c3NyX0NhcF9tb2RlbC9jYXBzL21hcC93aGlsZS93aGlsZV9jb250ZXh0"}, "parallel_iterations": {"i": "10"}, "T": {"type": "DT_FLOAT"}}}, {"name": "ssr_Cap_model/caps/map/while/TensorArrayReadV3/Enter", "op": "Enter", "input": ["ssr_Cap_model/caps/map/TensorArray"], "attr": {"frame_name": {"s": "c3NyX0NhcF9tb2RlbC9jYXBzL21hcC93aGlsZS93aGlsZV9jb250ZXh0"}, "is_constant": {"b": true}, "parallel_iterations": {"i": "10"}, "T": {"type": "DT_RESOURCE"}}}, {"name": "ssr_Cap_model/caps/map/TensorArrayUnstack/TensorArrayScatter/TensorArrayScatterV3", "op": "TensorArrayScatterV3", "input": ["ssr_Cap_model/caps/map/TensorArray", "ssr_Cap_model/caps/map/TensorArrayUnstack/range", "ssr_Cap_model/caps/Tile", "ssr_Cap_model/caps/map/TensorArray:1"], "attr": {"T": {"type": "DT_FLOAT"}}}, {"name": "ssr_Cap_model/caps/map/while/Less", "op": "Less", "input": ["ssr_Cap_model/caps/map/while/Merge", "ssr_Cap_model/caps/map/while/Less/Enter"], "attr": {"T": {"type": "DT_INT32"}}}, {"name": "ssr_Cap_model/caps/map/while/Less_1", "op": "Less", "input": ["ssr_Cap_model/caps/map/while/Merge_1", "ssr_Cap_model/caps/map/while/Less/Enter"], "attr": {"T": {"type": "DT_INT32"}}}, {"name": "ssr_Cap_model/caps/map/while/Merge_2", "op": "Merge", "input": ["ssr_Cap_model/caps/map/while/Enter_2", "ssr_Cap_model/caps/map/while/NextIteration_2"], "attr": {"N": {"i": "2"}, "T": {"type": "DT_FLOAT"}}}, {"name": "ssr_Cap_model/caps/map/while/TensorArrayReadV3/Enter_1", "op": "Enter", "input": ["ssr_Cap_model/caps/map/TensorArrayUnstack/TensorArrayScatter/TensorArrayScatterV3"], "attr": {"T": {"type": "DT_FLOAT"}, "parallel_iterations": {"i": "10"}, "is_constant": {"b": true}, "frame_name": {"s": "c3NyX0NhcF9tb2RlbC9jYXBzL21hcC93aGlsZS93aGlsZV9jb250ZXh0"}}}, {"name": "ssr_Cap_model/caps/map/while/LogicalAnd", "op": "LogicalAnd", "input": ["ssr_Cap_model/caps/map/while/Less", "ssr_Cap_model/caps/map/while/Less_1"]}, {"name": "ssr_Cap_model/caps/map/while/LoopCond", "op": "LoopCond", "input": ["ssr_Cap_model/caps/map/while/LogicalAnd"]}, {"name": "ssr_Cap_model/caps/map/while/Switch_1", "op": "Switch", "input": ["ssr_Cap_model/caps/map/while/Merge_1", "ssr_Cap_model/caps/map/while/LoopCond"], "attr": {"T": {"type": "DT_INT32"}}}, {"name": "ssr_Cap_model/caps/map/while/Switch", "op": "Switch", "input": ["ssr_Cap_model/caps/map/while/Merge", "ssr_Cap_model/caps/map/while/LoopCond"], "attr": {"T": {"type": "DT_INT32"}}}, {"name": "ssr_Cap_model/caps/map/while/Switch_2", "op": "Switch", "input": ["ssr_Cap_model/caps/map/while/Merge_2", "ssr_Cap_model/caps/map/while/LoopCond"], "attr": {"T": {"type": "DT_FLOAT"}}}, {"name": "ssr_Cap_model/caps/map/while/TensorArrayReadV3", "op": "TensorArrayReadV3", "input": ["ssr_Cap_model/caps/map/while/TensorArrayReadV3/Enter", "ssr_Cap_model/caps/map/while/Switch_1:1", "ssr_Cap_model/caps/map/while/TensorArrayReadV3/Enter_1"], "attr": {"dtype": {"type": "DT_FLOAT"}}}, {"name": "ssr_Cap_model/caps/map/while/Identity", "op": "Identity", "input": ["ssr_Cap_model/caps/map/while/Switch:1"], "attr": {"T": {"type": "DT_INT32"}}}, {"name": "ssr_Cap_model/caps/map/while/Exit_2", "op": "Exit", "input": ["ssr_Cap_model/caps/map/while/Switch_2"], "attr": {"T": {"type": "DT_FLOAT"}}}, {"name": "ssr_Cap_model/caps/map/while/concat", "op": "Const", "input": ["^ssr_Cap_model/caps/map/while/Identity"], "attr": {"value": {"tensor": {"dtype": "DT_INT32", "tensorShape": {"dim": [{"size": "4"}]}}}, "dtype": {"type": "DT_INT32"}}}, {"name": "ssr_Cap_model/caps/map/while/add/y", "op": "Const", "input": ["^ssr_Cap_model/caps/map/while/Identity"], "attr": {"dtype": {"type": "DT_INT32"}, "value": {"tensor": {"dtype": "DT_INT32", "tensorShape": {}}}}}, {"name": "ssr_Cap_model/caps/map/while/add_1/y", "op": "Const", "input": ["^ssr_Cap_model/caps/map/while/Identity"], "attr": {"value": {"tensor": {"dtype": "DT_INT32", "tensorShape": {}}}, "dtype": {"type": "DT_INT32"}}}, {"name": "ssr_Cap_model/caps/map/TensorArrayStack/TensorArraySizeV3", "op": "TensorArraySizeV3", "input": ["ssr_Cap_model/caps/map/TensorArray_1", "ssr_Cap_model/caps/map/while/Exit_2"]}, {"name": "ssr_Cap_model/caps/map/while/Reshape", "op": "Reshape", "input": ["ssr_Cap_model/caps/map/while/TensorArrayReadV3", "ssr_Cap_model/caps/map/while/concat"], "attr": {"Tshape": {"type": "DT_INT32"}, "T": {"type": "DT_FLOAT"}}}, {"name": "ssr_Cap_model/caps/map/while/add", "op": "Add", "input": ["ssr_Cap_model/caps/map/while/Identity", "ssr_Cap_model/caps/map/while/add/y"], "attr": {"T": {"type": "DT_INT32"}}}, {"name": "ssr_Cap_model/caps/map/while/add_1", "op": "Add", "input": ["ssr_Cap_model/caps/map/while/Switch_1:1", "ssr_Cap_model/caps/map/while/add_1/y"], "attr": {"T": {"type": "DT_INT32"}}}, {"name": "ssr_Cap_model/caps/map/TensorArrayStack/range", "op": "Range", "input": ["ssr_Cap_model/caps/map/TensorArrayStack/range/start", "ssr_Cap_model/caps/map/TensorArrayStack/TensorArraySizeV3", "ssr_Cap_model/caps/map/TensorArrayStack/range/delta"], "attr": {"Tidx": {"type": "DT_INT32"}}}, {"name": "ssr_Cap_model/caps/map/while/MatMul", "op": "BatchMatMulV2", "input": ["ssr_Cap_model/caps/map/while/Reshape", "ConstantFolding/caps/W_enter"], "attr": {"adj_x": {"b": true}, "adj_y": {"b": true}, "T": {"type": "DT_FLOAT"}}}, {"name": "ssr_Cap_model/caps/map/while/NextIteration", "op": "NextIteration", "input": ["ssr_Cap_model/caps/map/while/add"], "attr": {"T": {"type": "DT_INT32"}}}, {"name": "ssr_Cap_model/caps/map/while/NextIteration_1", "op": "NextIteration", "input": ["ssr_Cap_model/caps/map/while/add_1"], "attr": {"T": {"type": "DT_INT32"}}}, {"name": "ssr_Cap_model/caps/map/TensorArrayStack/TensorArrayGatherV3", "op": "TensorArrayGatherV3", "input": ["ssr_Cap_model/caps/map/TensorArray_1", "ssr_Cap_model/caps/map/TensorArrayStack/range", "ssr_Cap_model/caps/map/while/Exit_2"], "attr": {"dtype": {"type": "DT_FLOAT"}, "element_shape": {"shape": {"dim": [{"size": "3"}, {"size": "21"}, {"size": "16"}]}}}}, {"name": "ssr_Cap_model/caps/map/while/Squeeze", "op": "Squeeze", "input": ["ssr_Cap_model/caps/map/while/MatMul"], "attr": {"squeeze_dims": {"list": {"i": ["2"]}}, "T": {"type": "DT_FLOAT"}}}, {"name": "ssr_Cap_model/caps/Shape", "op": "Shape", "input": ["ssr_Cap_model/caps/map/TensorArrayStack/TensorArrayGatherV3"], "attr": {"T": {"type": "DT_FLOAT"}, "out_type": {"type": "DT_INT32"}}}, {"name": "ssr_Cap_model/caps/map/while/TensorArrayWrite/TensorArrayWriteV3", "op": "TensorArrayWriteV3", "input": ["ssr_Cap_model/caps/map/while/TensorArrayWrite/TensorArrayWriteV3/Enter", "ssr_Cap_model/caps/map/while/Switch_1:1", "ssr_Cap_model/caps/map/while/Squeeze", "ssr_Cap_model/caps/map/while/Switch_2:1"], "attr": {"T": {"type": "DT_FLOAT"}}}, {"name": "ssr_Cap_model/caps/strided_slice", "op": "StridedSlice", "input": ["ssr_Cap_model/caps/Shape", "ssr_Cap_model/caps/strided_slice/stack", "ssr_Cap_model/caps/strided_slice/stack_1", "ssr_Cap_model/caps/strided_slice/stack_2"], "attr": {"T": {"type": "DT_INT32"}, "end_mask": {"i": "0"}, "begin_mask": {"i": "0"}, "new_axis_mask": {"i": "0"}, "ellipsis_mask": {"i": "0"}, "shrink_axis_mask": {"i": "1"}, "Index": {"type": "DT_INT32"}}}, {"name": "ssr_Cap_model/caps/map/while/NextIteration_2", "op": "NextIteration", "input": ["ssr_Cap_model/caps/map/while/TensorArrayWrite/TensorArrayWriteV3"], "attr": {"T": {"type": "DT_FLOAT"}}}, {"name": "ssr_Cap_model/caps/zeros/packed", "op": "Pack", "input": ["ssr_Cap_model/caps/strided_slice", "ssr_Cap_model/caps/zeros/packed/1", "ssr_Cap_model/caps/zeros/packed/2"], "attr": {"axis": {"i": "0"}, "N": {"i": "3"}, "T": {"type": "DT_INT32"}}}, {"name": "ssr_Cap_model/caps/zeros", "op": "Fill", "input": ["ssr_Cap_model/caps/zeros/packed", "ssr_Cap_model/caps/zeros/Const"], "attr": {"T": {"type": "DT_FLOAT"}, "index_type": {"type": "DT_INT32"}}}, {"name": "ssr_Cap_model/caps/transpose", "op": "Transpose", "input": ["ssr_Cap_model/caps/zeros", "ssr_Cap_model/caps/concat"], "attr": {"Tperm": {"type": "DT_INT32"}, "T": {"type": "DT_FLOAT"}}}, {"name": "ssr_Cap_model/caps/Softmax", "op": "Softmax", "input": ["ssr_Cap_model/caps/transpose"], "attr": {"T": {"type": "DT_FLOAT"}}}, {"name": "ssr_Cap_model/caps/transpose_1", "op": "Transpose", "input": ["ssr_Cap_model/caps/Softmax", "ssr_Cap_model/caps/concat_1"], "attr": {"Tperm": {"type": "DT_INT32"}, "T": {"type": "DT_FLOAT"}}}, {"name": "ssr_Cap_model/caps/Shape_1", "op": "Shape", "input": ["ssr_Cap_model/caps/transpose_1"], "attr": {"T": {"type": "DT_FLOAT"}, "out_type": {"type": "DT_INT32"}}}, {"name": "ssr_Cap_model/caps/concat_2", "op": "ConcatV2", "input": ["ssr_Cap_model/caps/Shape_1", "ssr_Cap_model/caps/concat_2/values_1", "ssr_Cap_model/caps/concat_2/axis"], "attr": {"T": {"type": "DT_INT32"}, "N": {"i": "2"}, "Tidx": {"type": "DT_INT32"}}}, {"name": "ssr_Cap_model/caps/Reshape", "op": "Reshape", "input": ["ssr_Cap_model/caps/transpose_1", "ssr_Cap_model/caps/concat_2"], "attr": {"Tshape": {"type": "DT_INT32"}, "T": {"type": "DT_FLOAT"}}}, {"name": "ssr_Cap_model/caps/MatMul", "op": "BatchMatMulV2", "input": ["ssr_Cap_model/caps/Reshape", "ssr_Cap_model/caps/map/TensorArrayStack/TensorArrayGatherV3"], "attr": {"T": {"type": "DT_FLOAT"}, "adj_y": {"b": false}, "adj_x": {"b": true}}}, {"name": "ssr_Cap_model/caps/Squeeze", "op": "Squeeze", "input": ["ssr_Cap_model/caps/MatMul"], "attr": {"T": {"type": "DT_FLOAT"}, "squeeze_dims": {"list": {"i": ["2"]}}}}, {"name": "ssr_Cap_model/caps/Square", "op": "Square", "input": ["ssr_Cap_model/caps/Squeeze"], "attr": {"T": {"type": "DT_FLOAT"}}}, {"name": "ssr_Cap_model/caps/Sum", "op": "Sum", "input": ["ssr_Cap_model/caps/Square", "ssr_Cap_model/caps/Sum/reduction_indices"], "attr": {"T": {"type": "DT_FLOAT"}, "Tidx": {"type": "DT_INT32"}, "keep_dims": {"b": true}}}, {"name": "ssr_Cap_model/caps/add", "op": "Add", "input": ["ssr_Cap_model/caps/add/x", "ssr_Cap_model/caps/Sum"], "attr": {"T": {"type": "DT_FLOAT"}}}, {"name": "ssr_Cap_model/caps/add_1", "op": "Add", "input": ["ssr_Cap_model/caps/Sum", "ssr_Cap_model/caps/add_1/y"], "attr": {"T": {"type": "DT_FLOAT"}}}, {"name": "ssr_Cap_model/caps/truediv", "op": "RealDiv", "input": ["ssr_Cap_model/caps/Sum", "ssr_Cap_model/caps/add"], "attr": {"T": {"type": "DT_FLOAT"}}}, {"name": "ssr_Cap_model/caps/clip_by_value/Minimum", "op": "Minimum", "input": ["ssr_Cap_model/caps/add_1", "ssr_Cap_model/caps/Const_1"], "attr": {"T": {"type": "DT_FLOAT"}}}, {"name": "ssr_Cap_model/caps/clip_by_value", "op": "Maximum", "input": ["ssr_Cap_model/caps/clip_by_value/Minimum", "ssr_Cap_model/caps/Const"], "attr": {"T": {"type": "DT_FLOAT"}}}, {"name": "ssr_Cap_model/caps/Sqrt", "op": "Rsqrt", "input": ["ssr_Cap_model/caps/clip_by_value"], "attr": {"T": {"type": "DT_FLOAT"}}}, {"name": "ssr_Cap_model/caps/truediv_1", "op": "Mul", "input": ["ssr_Cap_model/caps/truediv", "ssr_Cap_model/caps/Sqrt"], "attr": {"T": {"type": "DT_FLOAT"}}}, {"name": "ssr_Cap_model/caps/mul", "op": "Mul", "input": ["ssr_Cap_model/caps/truediv_1", "ssr_Cap_model/caps/Squeeze"], "attr": {"T": {"type": "DT_FLOAT"}}}, {"name": "ssr_Cap_model/caps/Shape_2", "op": "Shape", "input": ["ssr_Cap_model/caps/mul"], "attr": {"out_type": {"type": "DT_INT32"}, "T": {"type": "DT_FLOAT"}}}, {"name": "ssr_Cap_model/caps/concat_3", "op": "ConcatV2", "input": ["ssr_Cap_model/caps/Shape_2", "ssr_Cap_model/caps/concat_3/values_1", "ssr_Cap_model/caps/concat_3/axis"], "attr": {"N": {"i": "2"}, "Tidx": {"type": "DT_INT32"}, "T": {"type": "DT_INT32"}}}, {"name": "ssr_Cap_model/caps/Reshape_1", "op": "Reshape", "input": ["ssr_Cap_model/caps/mul", "ssr_Cap_model/caps/concat_3"], "attr": {"T": {"type": "DT_FLOAT"}, "Tshape": {"type": "DT_INT32"}}}, {"name": "ssr_Cap_model/caps/MatMul_1", "op": "BatchMatMulV2", "input": ["ssr_Cap_model/caps/Reshape_1", "ssr_Cap_model/caps/map/TensorArrayStack/TensorArrayGatherV3"], "attr": {"adj_y": {"b": true}, "T": {"type": "DT_FLOAT"}, "adj_x": {"b": true}}}, {"name": "ssr_Cap_model/caps/Squeeze_1", "op": "Squeeze", "input": ["ssr_Cap_model/caps/MatMul_1"], "attr": {"T": {"type": "DT_FLOAT"}, "squeeze_dims": {"list": {"i": ["2"]}}}}, {"name": "ssr_Cap_model/caps/add_2", "op": "Add", "input": ["ssr_Cap_model/caps/zeros", "ssr_Cap_model/caps/Squeeze_1"], "attr": {"T": {"type": "DT_FLOAT"}}}, {"name": "ssr_Cap_model/caps/transpose_2", "op": "Transpose", "input": ["ssr_Cap_model/caps/add_2", "ssr_Cap_model/caps/concat_4"], "attr": {"T": {"type": "DT_FLOAT"}, "Tperm": {"type": "DT_INT32"}}}, {"name": "ssr_Cap_model/caps/Softmax_1", "op": "Softmax", "input": ["ssr_Cap_model/caps/transpose_2"], "attr": {"T": {"type": "DT_FLOAT"}}}, {"name": "ssr_Cap_model/caps/transpose_3", "op": "Transpose", "input": ["ssr_Cap_model/caps/Softmax_1", "ssr_Cap_model/caps/concat_5"], "attr": {"T": {"type": "DT_FLOAT"}, "Tperm": {"type": "DT_INT32"}}}, {"name": "ssr_Cap_model/caps/Shape_3", "op": "Shape", "input": ["ssr_Cap_model/caps/transpose_3"], "attr": {"T": {"type": "DT_FLOAT"}, "out_type": {"type": "DT_INT32"}}}, {"name": "ssr_Cap_model/caps/concat_6", "op": "ConcatV2", "input": ["ssr_Cap_model/caps/Shape_3", "ssr_Cap_model/caps/concat_6/values_1", "ssr_Cap_model/caps/concat_6/axis"], "attr": {"T": {"type": "DT_INT32"}, "Tidx": {"type": "DT_INT32"}, "N": {"i": "2"}}}, {"name": "ssr_Cap_model/caps/Reshape_2", "op": "Reshape", "input": ["ssr_Cap_model/caps/transpose_3", "ssr_Cap_model/caps/concat_6"], "attr": {"T": {"type": "DT_FLOAT"}, "Tshape": {"type": "DT_INT32"}}}, {"name": "ssr_Cap_model/caps/MatMul_2", "op": "BatchMatMulV2", "input": ["ssr_Cap_model/caps/Reshape_2", "ssr_Cap_model/caps/map/TensorArrayStack/TensorArrayGatherV3"], "attr": {"adj_x": {"b": true}, "T": {"type": "DT_FLOAT"}, "adj_y": {"b": false}}}, {"name": "ssr_Cap_model/caps/Squeeze_2", "op": "Squeeze", "input": ["ssr_Cap_model/caps/MatMul_2"], "attr": {"squeeze_dims": {"list": {"i": ["2"]}}, "T": {"type": "DT_FLOAT"}}}, {"name": "ssr_Cap_model/caps/Square_1", "op": "Square", "input": ["ssr_Cap_model/caps/Squeeze_2"], "attr": {"T": {"type": "DT_FLOAT"}}}, {"name": "ssr_Cap_model/caps/Sum_1", "op": "Sum", "input": ["ssr_Cap_model/caps/Square_1", "ssr_Cap_model/caps/Sum_1/reduction_indices"], "attr": {"T": {"type": "DT_FLOAT"}, "Tidx": {"type": "DT_INT32"}, "keep_dims": {"b": true}}}, {"name": "ssr_Cap_model/caps/add_3", "op": "Add", "input": ["ssr_Cap_model/caps/add_3/x", "ssr_Cap_model/caps/Sum_1"], "attr": {"T": {"type": "DT_FLOAT"}}}, {"name": "ssr_Cap_model/caps/add_4", "op": "Add", "input": ["ssr_Cap_model/caps/Sum_1", "ssr_Cap_model/caps/add_4/y"], "attr": {"T": {"type": "DT_FLOAT"}}}, {"name": "ssr_Cap_model/caps/truediv_2", "op": "RealDiv", "input": ["ssr_Cap_model/caps/Sum_1", "ssr_Cap_model/caps/add_3"], "attr": {"T": {"type": "DT_FLOAT"}}}, {"name": "ssr_Cap_model/caps/clip_by_value_1/Minimum", "op": "Minimum", "input": ["ssr_Cap_model/caps/add_4", "ssr_Cap_model/caps/Const_3"], "attr": {"T": {"type": "DT_FLOAT"}}}, {"name": "ssr_Cap_model/caps/clip_by_value_1", "op": "Maximum", "input": ["ssr_Cap_model/caps/clip_by_value_1/Minimum", "ssr_Cap_model/caps/Const_2"], "attr": {"T": {"type": "DT_FLOAT"}}}, {"name": "ssr_Cap_model/caps/Sqrt_1", "op": "Rsqrt", "input": ["ssr_Cap_model/caps/clip_by_value_1"], "attr": {"T": {"type": "DT_FLOAT"}}}, {"name": "ssr_Cap_model/caps/truediv_3", "op": "Mul", "input": ["ssr_Cap_model/caps/truediv_2", "ssr_Cap_model/caps/Sqrt_1"], "attr": {"T": {"type": "DT_FLOAT"}}}, {"name": "ssr_Cap_model/caps/mul_1", "op": "Mul", "input": ["ssr_Cap_model/caps/truediv_3", "ssr_Cap_model/caps/Squeeze_2"], "attr": {"T": {"type": "DT_FLOAT"}}}, {"name": "ssr_Cap_model/aggregated_feature_extraction_layer_1/strided_slice_2", "op": "StridedSlice", "input": ["ssr_Cap_model/caps/mul_1", "ssr_Cap_model/aggregated_feature_extraction_layer_1/strided_slice_2/stack", "ssr_Cap_model/aggregated_feature_extraction_layer_1/strided_slice_2/stack_1", "ssr_Cap_model/aggregated_feature_extraction_layer_1/strided_slice_2/stack_2"], "attr": {"new_axis_mask": {"i": "0"}, "begin_mask": {"i": "5"}, "end_mask": {"i": "5"}, "T": {"type": "DT_FLOAT"}, "Index": {"type": "DT_INT32"}, "ellipsis_mask": {"i": "0"}, "shrink_axis_mask": {"i": "0"}}}, {"name": "ssr_Cap_model/aggregated_feature_extraction_layer_1/strided_slice", "op": "StridedSlice", "input": ["ssr_Cap_model/caps/mul_1", "ssr_Cap_model/aggregated_feature_extraction_layer_1/strided_slice/stack", "ssr_Cap_model/aggregated_feature_extraction_layer_1/strided_slice/stack_1", "ssr_Cap_model/aggregated_feature_extraction_layer_1/strided_slice/stack_2"], "attr": {"ellipsis_mask": {"i": "0"}, "T": {"type": "DT_FLOAT"}, "shrink_axis_mask": {"i": "0"}, "Index": {"type": "DT_INT32"}, "end_mask": {"i": "5"}, "new_axis_mask": {"i": "0"}, "begin_mask": {"i": "5"}}}, {"name": "ssr_Cap_model/aggregated_feature_extraction_layer_1/strided_slice_1", "op": "StridedSlice", "input": ["ssr_Cap_model/caps/mul_1", "ssr_Cap_model/aggregated_feature_extraction_layer_1/strided_slice_1/stack", "ssr_Cap_model/aggregated_feature_extraction_layer_1/strided_slice_1/stack_1", "ssr_Cap_model/aggregated_feature_extraction_layer_1/strided_slice_1/stack_2"], "attr": {"new_axis_mask": {"i": "0"}, "ellipsis_mask": {"i": "0"}, "begin_mask": {"i": "5"}, "Index": {"type": "DT_INT32"}, "T": {"type": "DT_FLOAT"}, "end_mask": {"i": "5"}, "shrink_axis_mask": {"i": "0"}}}, {"name": "ssr_Cap_model/reshape_9/Shape", "op": "Shape", "input": ["ssr_Cap_model/aggregated_feature_extraction_layer_1/strided_slice_2"], "attr": {"T": {"type": "DT_FLOAT"}, "out_type": {"type": "DT_INT32"}}}, {"name": "ssr_Cap_model/reshape_7/Shape", "op": "Shape", "input": ["ssr_Cap_model/aggregated_feature_extraction_layer_1/strided_slice"], "attr": {"T": {"type": "DT_FLOAT"}, "out_type": {"type": "DT_INT32"}}}, {"name": "ssr_Cap_model/reshape_8/Shape", "op": "Shape", "input": ["ssr_Cap_model/aggregated_feature_extraction_layer_1/strided_slice_1"], "attr": {"out_type": {"type": "DT_INT32"}, "T": {"type": "DT_FLOAT"}}}, {"name": "ssr_Cap_model/reshape_9/strided_slice", "op": "StridedSlice", "input": ["ssr_Cap_model/reshape_9/Shape", "ssr_Cap_model/reshape_9/strided_slice/stack", "ssr_Cap_model/reshape_9/strided_slice/stack_1", "ssr_Cap_model/reshape_9/strided_slice/stack_2"], "attr": {"ellipsis_mask": {"i": "0"}, "Index": {"type": "DT_INT32"}, "end_mask": {"i": "0"}, "T": {"type": "DT_INT32"}, "begin_mask": {"i": "0"}, "new_axis_mask": {"i": "0"}, "shrink_axis_mask": {"i": "1"}}}, {"name": "ssr_Cap_model/reshape_7/strided_slice", "op": "StridedSlice", "input": ["ssr_Cap_model/reshape_7/Shape", "ssr_Cap_model/reshape_7/strided_slice/stack", "ssr_Cap_model/reshape_7/strided_slice/stack_1", "ssr_Cap_model/reshape_7/strided_slice/stack_2"], "attr": {"begin_mask": {"i": "0"}, "shrink_axis_mask": {"i": "1"}, "Index": {"type": "DT_INT32"}, "new_axis_mask": {"i": "0"}, "end_mask": {"i": "0"}, "ellipsis_mask": {"i": "0"}, "T": {"type": "DT_INT32"}}}, {"name": "ssr_Cap_model/reshape_8/strided_slice", "op": "StridedSlice", "input": ["ssr_Cap_model/reshape_8/Shape", "ssr_Cap_model/reshape_8/strided_slice/stack", "ssr_Cap_model/reshape_8/strided_slice/stack_1", "ssr_Cap_model/reshape_8/strided_slice/stack_2"], "attr": {"new_axis_mask": {"i": "0"}, "shrink_axis_mask": {"i": "1"}, "begin_mask": {"i": "0"}, "T": {"type": "DT_INT32"}, "Index": {"type": "DT_INT32"}, "ellipsis_mask": {"i": "0"}, "end_mask": {"i": "0"}}}, {"name": "ssr_Cap_model/reshape_9/Reshape/shape", "op": "Pack", "input": ["ssr_Cap_model/reshape_9/strided_slice", "ssr_Cap_model/reshape_9/Reshape/shape/1"], "attr": {"N": {"i": "2"}, "T": {"type": "DT_INT32"}, "axis": {"i": "0"}}}, {"name": "ssr_Cap_model/reshape_7/Reshape/shape", "op": "Pack", "input": ["ssr_Cap_model/reshape_7/strided_slice", "ssr_Cap_model/reshape_7/Reshape/shape/1"], "attr": {"N": {"i": "2"}, "T": {"type": "DT_INT32"}, "axis": {"i": "0"}}}, {"name": "ssr_Cap_model/reshape_8/Reshape/shape", "op": "Pack", "input": ["ssr_Cap_model/reshape_8/strided_slice", "ssr_Cap_model/reshape_8/Reshape/shape/1"], "attr": {"axis": {"i": "0"}, "N": {"i": "2"}, "T": {"type": "DT_INT32"}}}, {"name": "ssr_Cap_model/reshape_9/Reshape", "op": "Reshape", "input": ["ssr_Cap_model/aggregated_feature_extraction_layer_1/strided_slice_2", "ssr_Cap_model/reshape_9/Reshape/shape"], "attr": {"T": {"type": "DT_FLOAT"}, "Tshape": {"type": "DT_INT32"}}}, {"name": "ssr_Cap_model/reshape_7/Reshape", "op": "Reshape", "input": ["ssr_Cap_model/aggregated_feature_extraction_layer_1/strided_slice", "ssr_Cap_model/reshape_7/Reshape/shape"], "attr": {"T": {"type": "DT_FLOAT"}, "Tshape": {"type": "DT_INT32"}}}, {"name": "ssr_Cap_model/reshape_8/Reshape", "op": "Reshape", "input": ["ssr_Cap_model/aggregated_feature_extraction_layer_1/strided_slice_1", "ssr_Cap_model/reshape_8/Reshape/shape"], "attr": {"Tshape": {"type": "DT_INT32"}, "T": {"type": "DT_FLOAT"}}}, {"name": "ssr_F_Cap_model/feat_slice_layer_8/strided_slice", "op": "StridedSlice", "input": ["ssr_Cap_model/reshape_9/Reshape", "ssr_F_Cap_model/feat_slice_layer_8/strided_slice/stack", "ssr_F_Cap_model/feat_slice_layer_8/strided_slice/stack_1", "ssr_F_Cap_model/feat_slice_layer_8/strided_slice/stack_2"], "attr": {"shrink_axis_mask": {"i": "0"}, "end_mask": {"i": "1"}, "Index": {"type": "DT_INT32"}, "T": {"type": "DT_FLOAT"}, "begin_mask": {"i": "1"}, "ellipsis_mask": {"i": "0"}, "new_axis_mask": {"i": "0"}}}, {"name": "ssr_F_Cap_model/feat_slice_layer_9/strided_slice", "op": "StridedSlice", "input": ["ssr_Cap_model/reshape_9/Reshape", "ssr_F_Cap_model/feat_slice_layer_9/strided_slice/stack", "ssr_F_Cap_model/feat_slice_layer_9/strided_slice/stack_1", "ssr_F_Cap_model/feat_slice_layer_9/strided_slice/stack_2"], "attr": {"ellipsis_mask": {"i": "0"}, "Index": {"type": "DT_INT32"}, "new_axis_mask": {"i": "0"}, "begin_mask": {"i": "1"}, "end_mask": {"i": "1"}, "T": {"type": "DT_FLOAT"}, "shrink_axis_mask": {"i": "0"}}}, {"name": "ssr_F_Cap_model/feat_slice_layer_7/strided_slice", "op": "StridedSlice", "input": ["ssr_Cap_model/reshape_9/Reshape", "ssr_F_Cap_model/feat_slice_layer_7/strided_slice/stack", "ssr_F_Cap_model/feat_slice_layer_7/strided_slice/stack_1", "ssr_F_Cap_model/feat_slice_layer_7/strided_slice/stack_2"], "attr": {"Index": {"type": "DT_INT32"}, "new_axis_mask": {"i": "0"}, "T": {"type": "DT_FLOAT"}, "shrink_axis_mask": {"i": "0"}, "ellipsis_mask": {"i": "0"}, "begin_mask": {"i": "1"}, "end_mask": {"i": "1"}}}, {"name": "ssr_F_Cap_model/feat_slice_layer_2/strided_slice", "op": "StridedSlice", "input": ["ssr_Cap_model/reshape_7/Reshape", "ssr_F_Cap_model/feat_slice_layer_2/strided_slice/stack", "ssr_F_Cap_model/feat_slice_layer_2/strided_slice/stack_1", "ssr_F_Cap_model/feat_slice_layer_2/strided_slice/stack_2"], "attr": {"Index": {"type": "DT_INT32"}, "T": {"type": "DT_FLOAT"}, "ellipsis_mask": {"i": "0"}, "shrink_axis_mask": {"i": "0"}, "begin_mask": {"i": "1"}, "new_axis_mask": {"i": "0"}, "end_mask": {"i": "1"}}}, {"name": "ssr_F_Cap_model/feat_slice_layer_3/strided_slice", "op": "StridedSlice", "input": ["ssr_Cap_model/reshape_7/Reshape", "ssr_F_Cap_model/feat_slice_layer_3/strided_slice/stack", "ssr_F_Cap_model/feat_slice_layer_3/strided_slice/stack_1", "ssr_F_Cap_model/feat_slice_layer_3/strided_slice/stack_2"], "attr": {"Index": {"type": "DT_INT32"}, "end_mask": {"i": "1"}, "new_axis_mask": {"i": "0"}, "begin_mask": {"i": "1"}, "ellipsis_mask": {"i": "0"}, "shrink_axis_mask": {"i": "0"}, "T": {"type": "DT_FLOAT"}}}, {"name": "ssr_F_Cap_model/feat_slice_layer_1/strided_slice", "op": "StridedSlice", "input": ["ssr_Cap_model/reshape_7/Reshape", "ssr_F_Cap_model/feat_slice_layer_1/strided_slice/stack", "ssr_F_Cap_model/feat_slice_layer_1/strided_slice/stack_1", "ssr_F_Cap_model/feat_slice_layer_1/strided_slice/stack_2"], "attr": {"ellipsis_mask": {"i": "0"}, "Index": {"type": "DT_INT32"}, "new_axis_mask": {"i": "0"}, "end_mask": {"i": "1"}, "begin_mask": {"i": "1"}, "T": {"type": "DT_FLOAT"}, "shrink_axis_mask": {"i": "0"}}}, {"name": "ssr_F_Cap_model/feat_slice_layer_5/strided_slice", "op": "StridedSlice", "input": ["ssr_Cap_model/reshape_8/Reshape", "ssr_F_Cap_model/feat_slice_layer_5/strided_slice/stack", "ssr_F_Cap_model/feat_slice_layer_5/strided_slice/stack_1", "ssr_F_Cap_model/feat_slice_layer_5/strided_slice/stack_2"], "attr": {"shrink_axis_mask": {"i": "0"}, "begin_mask": {"i": "1"}, "end_mask": {"i": "1"}, "Index": {"type": "DT_INT32"}, "ellipsis_mask": {"i": "0"}, "T": {"type": "DT_FLOAT"}, "new_axis_mask": {"i": "0"}}}, {"name": "ssr_F_Cap_model/feat_slice_layer_6/strided_slice", "op": "StridedSlice", "input": ["ssr_Cap_model/reshape_8/Reshape", "ssr_F_Cap_model/feat_slice_layer_6/strided_slice/stack", "ssr_F_Cap_model/feat_slice_layer_6/strided_slice/stack_1", "ssr_F_Cap_model/feat_slice_layer_6/strided_slice/stack_2"], "attr": {"shrink_axis_mask": {"i": "0"}, "end_mask": {"i": "1"}, "ellipsis_mask": {"i": "0"}, "begin_mask": {"i": "1"}, "Index": {"type": "DT_INT32"}, "T": {"type": "DT_FLOAT"}, "new_axis_mask": {"i": "0"}}}, {"name": "ssr_F_Cap_model/feat_slice_layer_4/strided_slice", "op": "StridedSlice", "input": ["ssr_Cap_model/reshape_8/Reshape", "ssr_F_Cap_model/feat_slice_layer_4/strided_slice/stack", "ssr_F_Cap_model/feat_slice_layer_4/strided_slice/stack_1", "ssr_F_Cap_model/feat_slice_layer_4/strided_slice/stack_2"], "attr": {"shrink_axis_mask": {"i": "0"}, "ellipsis_mask": {"i": "0"}, "end_mask": {"i": "1"}, "new_axis_mask": {"i": "0"}, "Index": {"type": "DT_INT32"}, "T": {"type": "DT_FLOAT"}, "begin_mask": {"i": "1"}}}, {"name": "ssr_F_Cap_model/local_delta_stage3/BiasAdd", "op": "_FusedMatMul", "input": ["ssr_F_Cap_model/feat_slice_layer_8/strided_slice", "local_delta_stage3/kernel", "local_delta_stage3/bias"], "device": "/device:CPU:0", "attr": {"num_args": {"i": "1"}, "T": {"type": "DT_FLOAT"}, "transpose_b": {"b": false}, "epsilon": {"f": 0.0}, "fused_ops": {"list": {"s": ["Qmlhc0FkZA=="]}}, "transpose_a": {"b": false}}}, {"name": "ssr_F_Cap_model/dense_5/Relu", "op": "_FusedMatMul", "input": ["ssr_F_Cap_model/feat_slice_layer_9/strided_slice", "dense_5/kernel", "dense_5/bias"], "device": "/device:CPU:0", "attr": {"transpose_b": {"b": false}, "epsilon": {"f": 0.0}, "T": {"type": "DT_FLOAT"}, "transpose_a": {"b": false}, "num_args": {"i": "1"}, "fused_ops": {"list": {"s": ["Qmlhc0FkZA==", "UmVsdQ=="]}}}}, {"name": "ssr_F_Cap_model/delta_s3/BiasAdd", "op": "_FusedMatMul", "input": ["ssr_F_Cap_model/feat_slice_layer_7/strided_slice", "delta_s3/kernel", "delta_s3/bias"], "device": "/device:CPU:0", "attr": {"num_args": {"i": "1"}, "transpose_a": {"b": false}, "T": {"type": "DT_FLOAT"}, "fused_ops": {"list": {"s": ["Qmlhc0FkZA=="]}}, "transpose_b": {"b": false}, "epsilon": {"f": 0.0}}}, {"name": "ssr_F_Cap_model/local_delta_stage1/BiasAdd", "op": "_FusedMatMul", "input": ["ssr_F_Cap_model/feat_slice_layer_2/strided_slice", "local_delta_stage1/kernel", "local_delta_stage1/bias"], "device": "/device:CPU:0", "attr": {"num_args": {"i": "1"}, "epsilon": {"f": 0.0}, "transpose_b": {"b": false}, "fused_ops": {"list": {"s": ["Qmlhc0FkZA=="]}}, "T": {"type": "DT_FLOAT"}, "transpose_a": {"b": false}}}, {"name": "ssr_F_Cap_model/dense_3/Relu", "op": "_FusedMatMul", "input": ["ssr_F_Cap_model/feat_slice_layer_3/strided_slice", "dense_3/kernel", "dense_3/bias"], "device": "/device:CPU:0", "attr": {"transpose_a": {"b": false}, "num_args": {"i": "1"}, "transpose_b": {"b": false}, "T": {"type": "DT_FLOAT"}, "epsilon": {"f": 0.0}, "fused_ops": {"list": {"s": ["Qmlhc0FkZA==", "UmVsdQ=="]}}}}, {"name": "ssr_F_Cap_model/delta_s1/BiasAdd", "op": "_FusedMatMul", "input": ["ssr_F_Cap_model/feat_slice_layer_1/strided_slice", "delta_s1/kernel", "delta_s1/bias"], "device": "/device:CPU:0", "attr": {"epsilon": {"f": 0.0}, "T": {"type": "DT_FLOAT"}, "fused_ops": {"list": {"s": ["Qmlhc0FkZA=="]}}, "num_args": {"i": "1"}, "transpose_a": {"b": false}, "transpose_b": {"b": false}}}, {"name": "ssr_F_Cap_model/local_delta_stage2/BiasAdd", "op": "_FusedMatMul", "input": ["ssr_F_Cap_model/feat_slice_layer_5/strided_slice", "local_delta_stage2/kernel", "local_delta_stage2/bias"], "device": "/device:CPU:0", "attr": {"epsilon": {"f": 0.0}, "T": {"type": "DT_FLOAT"}, "transpose_b": {"b": false}, "num_args": {"i": "1"}, "transpose_a": {"b": false}, "fused_ops": {"list": {"s": ["Qmlhc0FkZA=="]}}}}, {"name": "ssr_F_Cap_model/dense_4/Relu", "op": "_FusedMatMul", "input": ["ssr_F_Cap_model/feat_slice_layer_6/strided_slice", "dense_4/kernel", "dense_4/bias"], "device": "/device:CPU:0", "attr": {"num_args": {"i": "1"}, "transpose_b": {"b": false}, "transpose_a": {"b": false}, "epsilon": {"f": 0.0}, "T": {"type": "DT_FLOAT"}, "fused_ops": {"list": {"s": ["Qmlhc0FkZA==", "UmVsdQ=="]}}}}, {"name": "ssr_F_Cap_model/delta_s2/BiasAdd", "op": "_FusedMatMul", "input": ["ssr_F_Cap_model/feat_slice_layer_4/strided_slice", "delta_s2/kernel", "delta_s2/bias"], "device": "/device:CPU:0", "attr": {"fused_ops": {"list": {"s": ["Qmlhc0FkZA=="]}}, "T": {"type": "DT_FLOAT"}, "epsilon": {"f": 0.0}, "transpose_a": {"b": false}, "num_args": {"i": "1"}, "transpose_b": {"b": false}}}, {"name": "ssr_F_Cap_model/local_delta_stage3/Tanh", "op": "Tanh", "input": ["ssr_F_Cap_model/local_delta_stage3/BiasAdd"], "attr": {"T": {"type": "DT_FLOAT"}}}, {"name": "ssr_F_Cap_model/reshape_12/Shape", "op": "Shape", "input": ["ssr_F_Cap_model/dense_5/Relu"], "attr": {"T": {"type": "DT_FLOAT"}, "out_type": {"type": "DT_INT32"}}}, {"name": "ssr_F_Cap_model/delta_s3/Tanh", "op": "Tanh", "input": ["ssr_F_Cap_model/delta_s3/BiasAdd"], "attr": {"T": {"type": "DT_FLOAT"}}}, {"name": "ssr_F_Cap_model/local_delta_stage1/Tanh", "op": "Tanh", "input": ["ssr_F_Cap_model/local_delta_stage1/BiasAdd"], "attr": {"T": {"type": "DT_FLOAT"}}}, {"name": "ssr_F_Cap_model/reshape_10/Shape", "op": "Shape", "input": ["ssr_F_Cap_model/dense_3/Relu"], "attr": {"out_type": {"type": "DT_INT32"}, "T": {"type": "DT_FLOAT"}}}, {"name": "ssr_F_Cap_model/delta_s1/Tanh", "op": "Tanh", "input": ["ssr_F_Cap_model/delta_s1/BiasAdd"], "attr": {"T": {"type": "DT_FLOAT"}}}, {"name": "ssr_F_Cap_model/local_delta_stage2/Tanh", "op": "Tanh", "input": ["ssr_F_Cap_model/local_delta_stage2/BiasAdd"], "attr": {"T": {"type": "DT_FLOAT"}}}, {"name": "ssr_F_Cap_model/reshape_11/Shape", "op": "Shape", "input": ["ssr_F_Cap_model/dense_4/Relu"], "attr": {"T": {"type": "DT_FLOAT"}, "out_type": {"type": "DT_INT32"}}}, {"name": "ssr_F_Cap_model/delta_s2/Tanh", "op": "Tanh", "input": ["ssr_F_Cap_model/delta_s2/BiasAdd"], "attr": {"T": {"type": "DT_FLOAT"}}}, {"name": "pred_pose/add_15", "op": "Add", "input": ["pred_pose/add_15/x", "ssr_F_Cap_model/local_delta_stage3/Tanh"], "attr": {"T": {"type": "DT_FLOAT"}}}, {"name": "pred_pose/add_19", "op": "Add", "input": ["pred_pose/add_19/x", "ssr_F_Cap_model/local_delta_stage3/Tanh"], "attr": {"T": {"type": "DT_FLOAT"}}}, {"name": "ssr_F_Cap_model/reshape_12/strided_slice", "op": "StridedSlice", "input": ["ssr_F_Cap_model/reshape_12/Shape", "ssr_F_Cap_model/reshape_12/strided_slice/stack", "ssr_F_Cap_model/reshape_12/strided_slice/stack_1", "ssr_F_Cap_model/reshape_12/strided_slice/stack_2"], "attr": {"Index": {"type": "DT_INT32"}, "shrink_axis_mask": {"i": "1"}, "begin_mask": {"i": "0"}, "end_mask": {"i": "0"}, "new_axis_mask": {"i": "0"}, "T": {"type": "DT_INT32"}, "ellipsis_mask": {"i": "0"}}}, {"name": "pred_pose/add_23", "op": "Add", "input": ["pred_pose/add_23/x", "ssr_F_Cap_model/delta_s3/Tanh"], "attr": {"T": {"type": "DT_FLOAT"}}}, {"name": "pred_pose/add", "op": "Add", "input": ["pred_pose/add/x", "ssr_F_Cap_model/local_delta_stage1/Tanh"], "attr": {"T": {"type": "DT_FLOAT"}}}, {"name": "pred_pose/add_4", "op": "Add", "input": ["pred_pose/add_4/x", "ssr_F_Cap_model/local_delta_stage1/Tanh"], "attr": {"T": {"type": "DT_FLOAT"}}}, {"name": "ssr_F_Cap_model/reshape_10/strided_slice", "op": "StridedSlice", "input": ["ssr_F_Cap_model/reshape_10/Shape", "ssr_F_Cap_model/reshape_10/strided_slice/stack", "ssr_F_Cap_model/reshape_10/strided_slice/stack_1", "ssr_F_Cap_model/reshape_10/strided_slice/stack_2"], "attr": {"new_axis_mask": {"i": "0"}, "shrink_axis_mask": {"i": "1"}, "T": {"type": "DT_INT32"}, "Index": {"type": "DT_INT32"}, "begin_mask": {"i": "0"}, "ellipsis_mask": {"i": "0"}, "end_mask": {"i": "0"}}}, {"name": "pred_pose/add_6", "op": "Add", "input": ["pred_pose/add_6/x", "ssr_F_Cap_model/delta_s1/Tanh"], "attr": {"T": {"type": "DT_FLOAT"}}}, {"name": "pred_pose/add_13", "op": "Add", "input": ["pred_pose/add_13/x", "ssr_F_Cap_model/delta_s1/Tanh"], "attr": {"T": {"type": "DT_FLOAT"}}}, {"name": "pred_pose/add_21", "op": "Add", "input": ["pred_pose/add_21/x", "ssr_F_Cap_model/delta_s1/Tanh"], "attr": {"T": {"type": "DT_FLOAT"}}}, {"name": "pred_pose/add_7", "op": "Add", "input": ["pred_pose/add_7/x", "ssr_F_Cap_model/local_delta_stage2/Tanh"], "attr": {"T": {"type": "DT_FLOAT"}}}, {"name": "pred_pose/add_11", "op": "Add", "input": ["pred_pose/add_11/x", "ssr_F_Cap_model/local_delta_stage2/Tanh"], "attr": {"T": {"type": "DT_FLOAT"}}}, {"name": "ssr_F_Cap_model/reshape_11/strided_slice", "op": "StridedSlice", "input": ["ssr_F_Cap_model/reshape_11/Shape", "ssr_F_Cap_model/reshape_11/strided_slice/stack", "ssr_F_Cap_model/reshape_11/strided_slice/stack_1", "ssr_F_Cap_model/reshape_11/strided_slice/stack_2"], "attr": {"ellipsis_mask": {"i": "0"}, "shrink_axis_mask": {"i": "1"}, "new_axis_mask": {"i": "0"}, "Index": {"type": "DT_INT32"}, "end_mask": {"i": "0"}, "begin_mask": {"i": "0"}, "T": {"type": "DT_INT32"}}}, {"name": "pred_pose/add_22", "op": "Add", "input": ["pred_pose/add_22/x", "ssr_F_Cap_model/delta_s2/Tanh"], "attr": {"T": {"type": "DT_FLOAT"}}}, {"name": "pred_pose/add_14", "op": "Add", "input": ["pred_pose/add_14/x", "ssr_F_Cap_model/delta_s2/Tanh"], "attr": {"T": {"type": "DT_FLOAT"}}}, {"name": "ssr_F_Cap_model/reshape_12/Reshape/shape", "op": "Pack", "input": ["ssr_F_Cap_model/reshape_12/strided_slice", "ssr_F_Cap_model/reshape_12/Reshape/shape/1", "ssr_F_Cap_model/reshape_12/Reshape/shape/2"], "attr": {"T": {"type": "DT_INT32"}, "N": {"i": "3"}, "axis": {"i": "0"}}}, {"name": "pred_pose/mul_23", "op": "Mul", "input": ["pred_pose/mul_23/x", "pred_pose/add_23"], "attr": {"T": {"type": "DT_FLOAT"}}}, {"name": "ssr_F_Cap_model/reshape_10/Reshape/shape", "op": "Pack", "input": ["ssr_F_Cap_model/reshape_10/strided_slice", "ssr_F_Cap_model/reshape_10/Reshape/shape/1", "ssr_F_Cap_model/reshape_10/Reshape/shape/2"], "attr": {"T": {"type": "DT_INT32"}, "N": {"i": "3"}, "axis": {"i": "0"}}}, {"name": "pred_pose/mul_7", "op": "Mul", "input": ["pred_pose/mul_7/x", "pred_pose/add_6"], "attr": {"T": {"type": "DT_FLOAT"}}}, {"name": "pred_pose/mul_12", "op": "Mul", "input": ["pred_pose/mul_12/x", "pred_pose/add_13"], "attr": {"T": {"type": "DT_FLOAT"}}}, {"name": "pred_pose/mul_19", "op": "Mul", "input": ["pred_pose/mul_19/x", "pred_pose/add_21"], "attr": {"T": {"type": "DT_FLOAT"}}}, {"name": "ssr_F_Cap_model/reshape_11/Reshape/shape", "op": "Pack", "input": ["ssr_F_Cap_model/reshape_11/strided_slice", "ssr_F_Cap_model/reshape_11/Reshape/shape/1", "ssr_F_Cap_model/reshape_11/Reshape/shape/2"], "attr": {"T": {"type": "DT_INT32"}, "axis": {"i": "0"}, "N": {"i": "3"}}}, {"name": "pred_pose/mul_21", "op": "Mul", "input": ["pred_pose/mul_21/x", "pred_pose/add_22"], "attr": {"T": {"type": "DT_FLOAT"}}}, {"name": "pred_pose/mul_14", "op": "Mul", "input": ["pred_pose/mul_14/x", "pred_pose/add_14"], "attr": {"T": {"type": "DT_FLOAT"}}}, {"name": "ssr_F_Cap_model/reshape_12/Reshape", "op": "Reshape", "input": ["ssr_F_Cap_model/dense_5/Relu", "ssr_F_Cap_model/reshape_12/Reshape/shape"], "attr": {"Tshape": {"type": "DT_INT32"}, "T": {"type": "DT_FLOAT"}}}, {"name": "ssr_F_Cap_model/reshape_10/Reshape", "op": "Reshape", "input": ["ssr_F_Cap_model/dense_3/Relu", "ssr_F_Cap_model/reshape_10/Reshape/shape"], "attr": {"T": {"type": "DT_FLOAT"}, "Tshape": {"type": "DT_INT32"}}}, {"name": "ssr_F_Cap_model/reshape_11/Reshape", "op": "Reshape", "input": ["ssr_F_Cap_model/dense_4/Relu", "ssr_F_Cap_model/reshape_11/Reshape/shape"], "attr": {"Tshape": {"type": "DT_INT32"}, "T": {"type": "DT_FLOAT"}}}, {"name": "pred_pose/strided_slice_9", "op": "StridedSlice", "input": ["ssr_F_Cap_model/reshape_12/Reshape", "pred_pose/strided_slice_9/stack", "pred_pose/strided_slice_9/stack_1", "pred_pose/strided_slice_9/stack_2"], "attr": {"begin_mask": {"i": "3"}, "T": {"type": "DT_FLOAT"}, "ellipsis_mask": {"i": "0"}, "new_axis_mask": {"i": "0"}, "shrink_axis_mask": {"i": "4"}, "Index": {"type": "DT_INT32"}, "end_mask": {"i": "3"}}}, {"name": "pred_pose/strided_slice_10", "op": "StridedSlice", "input": ["ssr_F_Cap_model/reshape_12/Reshape", "pred_pose/strided_slice_10/stack", "pred_pose/strided_slice_10/stack_1", "pred_pose/strided_slice_10/stack_2"], "attr": {"end_mask": {"i": "3"}, "shrink_axis_mask": {"i": "4"}, "begin_mask": {"i": "3"}, "Index": {"type": "DT_INT32"}, "T": {"type": "DT_FLOAT"}, "new_axis_mask": {"i": "0"}, "ellipsis_mask": {"i": "0"}}}, {"name": "pred_pose/strided_slice_11", "op": "StridedSlice", "input": ["ssr_F_Cap_model/reshape_12/Reshape", "pred_pose/strided_slice_11/stack", "pred_pose/strided_slice_11/stack_1", "pred_pose/strided_slice_11/stack_2"], "attr": {"end_mask": {"i": "3"}, "Index": {"type": "DT_INT32"}, "T": {"type": "DT_FLOAT"}, "ellipsis_mask": {"i": "0"}, "new_axis_mask": {"i": "0"}, "begin_mask": {"i": "3"}, "shrink_axis_mask": {"i": "4"}}}, {"name": "pred_pose/strided_slice", "op": "StridedSlice", "input": ["ssr_F_Cap_model/reshape_10/Reshape", "pred_pose/strided_slice/stack", "pred_pose/strided_slice/stack_1", "pred_pose/strided_slice/stack_2"], "attr": {"Index": {"type": "DT_INT32"}, "new_axis_mask": {"i": "0"}, "ellipsis_mask": {"i": "0"}, "shrink_axis_mask": {"i": "4"}, "T": {"type": "DT_FLOAT"}, "begin_mask": {"i": "3"}, "end_mask": {"i": "3"}}}, {"name": "pred_pose/strided_slice_3", "op": "StridedSlice", "input": ["ssr_F_Cap_model/reshape_10/Reshape", "pred_pose/strided_slice_3/stack", "pred_pose/strided_slice_3/stack_1", "pred_pose/strided_slice_3/stack_2"], "attr": {"Index": {"type": "DT_INT32"}, "ellipsis_mask": {"i": "0"}, "new_axis_mask": {"i": "0"}, "T": {"type": "DT_FLOAT"}, "shrink_axis_mask": {"i": "4"}, "begin_mask": {"i": "3"}, "end_mask": {"i": "3"}}}, {"name": "pred_pose/strided_slice_4", "op": "StridedSlice", "input": ["ssr_F_Cap_model/reshape_10/Reshape", "pred_pose/strided_slice_4/stack", "pred_pose/strided_slice_4/stack_1", "pred_pose/strided_slice_4/stack_2"], "attr": {"ellipsis_mask": {"i": "0"}, "new_axis_mask": {"i": "0"}, "T": {"type": "DT_FLOAT"}, "shrink_axis_mask": {"i": "4"}, "Index": {"type": "DT_INT32"}, "begin_mask": {"i": "3"}, "end_mask": {"i": "3"}}}, {"name": "pred_pose/strided_slice_5", "op": "StridedSlice", "input": ["ssr_F_Cap_model/reshape_10/Reshape", "pred_pose/strided_slice_5/stack", "pred_pose/strided_slice_5/stack_1", "pred_pose/strided_slice_5/stack_2"], "attr": {"T": {"type": "DT_FLOAT"}, "Index": {"type": "DT_INT32"}, "end_mask": {"i": "3"}, "new_axis_mask": {"i": "0"}, "shrink_axis_mask": {"i": "4"}, "begin_mask": {"i": "3"}, "ellipsis_mask": {"i": "0"}}}, {"name": "pred_pose/strided_slice_1", "op": "StridedSlice", "input": ["ssr_F_Cap_model/reshape_10/Reshape", "pred_pose/strided_slice_1/stack", "pred_pose/strided_slice_1/stack_1", "pred_pose/strided_slice_1/stack_2"], "attr": {"new_axis_mask": {"i": "0"}, "end_mask": {"i": "3"}, "begin_mask": {"i": "3"}, "T": {"type": "DT_FLOAT"}, "ellipsis_mask": {"i": "0"}, "shrink_axis_mask": {"i": "4"}, "Index": {"type": "DT_INT32"}}}, {"name": "pred_pose/strided_slice_2", "op": "StridedSlice", "input": ["ssr_F_Cap_model/reshape_10/Reshape", "pred_pose/strided_slice_2/stack", "pred_pose/strided_slice_2/stack_1", "pred_pose/strided_slice_2/stack_2"], "attr": {"ellipsis_mask": {"i": "0"}, "end_mask": {"i": "3"}, "shrink_axis_mask": {"i": "4"}, "new_axis_mask": {"i": "0"}, "begin_mask": {"i": "3"}, "Index": {"type": "DT_INT32"}, "T": {"type": "DT_FLOAT"}}}, {"name": "pred_pose/strided_slice_6", "op": "StridedSlice", "input": ["ssr_F_Cap_model/reshape_11/Reshape", "pred_pose/strided_slice_6/stack", "pred_pose/strided_slice_6/stack_1", "pred_pose/strided_slice_6/stack_2"], "attr": {"shrink_axis_mask": {"i": "4"}, "end_mask": {"i": "3"}, "T": {"type": "DT_FLOAT"}, "begin_mask": {"i": "3"}, "Index": {"type": "DT_INT32"}, "ellipsis_mask": {"i": "0"}, "new_axis_mask": {"i": "0"}}}, {"name": "pred_pose/strided_slice_7", "op": "StridedSlice", "input": ["ssr_F_Cap_model/reshape_11/Reshape", "pred_pose/strided_slice_7/stack", "pred_pose/strided_slice_7/stack_1", "pred_pose/strided_slice_7/stack_2"], "attr": {"new_axis_mask": {"i": "0"}, "begin_mask": {"i": "3"}, "Index": {"type": "DT_INT32"}, "T": {"type": "DT_FLOAT"}, "shrink_axis_mask": {"i": "4"}, "ellipsis_mask": {"i": "0"}, "end_mask": {"i": "3"}}}, {"name": "pred_pose/strided_slice_8", "op": "StridedSlice", "input": ["ssr_F_Cap_model/reshape_11/Reshape", "pred_pose/strided_slice_8/stack", "pred_pose/strided_slice_8/stack_1", "pred_pose/strided_slice_8/stack_2"], "attr": {"shrink_axis_mask": {"i": "4"}, "end_mask": {"i": "3"}, "T": {"type": "DT_FLOAT"}, "begin_mask": {"i": "3"}, "new_axis_mask": {"i": "0"}, "ellipsis_mask": {"i": "0"}, "Index": {"type": "DT_INT32"}}}, {"name": "pred_pose/mul_15", "op": "Mul", "input": ["pred_pose/add_15", "pred_pose/strided_slice_9"], "attr": {"T": {"type": "DT_FLOAT"}}}, {"name": "pred_pose/mul_16", "op": "Mul", "input": ["ssr_F_Cap_model/local_delta_stage3/Tanh", "pred_pose/strided_slice_10"], "attr": {"T": {"type": "DT_FLOAT"}}}, {"name": "pred_pose/mul_17", "op": "Mul", "input": ["pred_pose/add_19", "pred_pose/strided_slice_11"], "attr": {"T": {"type": "DT_FLOAT"}}}, {"name": "pred_pose/mul", "op": "Mul", "input": ["pred_pose/strided_slice", "pred_pose/mul/y"], "attr": {"T": {"type": "DT_FLOAT"}}}, {"name": "pred_pose/mul_3", "op": "Mul", "input": ["pred_pose/add", "pred_pose/strided_slice_3"], "attr": {"T": {"type": "DT_FLOAT"}}}, {"name": "pred_pose/mul_4", "op": "Mul", "input": ["ssr_F_Cap_model/local_delta_stage1/Tanh", "pred_pose/strided_slice_4"], "attr": {"T": {"type": "DT_FLOAT"}}}, {"name": "pred_pose/mul_5", "op": "Mul", "input": ["pred_pose/add_4", "pred_pose/strided_slice_5"], "attr": {"T": {"type": "DT_FLOAT"}}}, {"name": "pred_pose/mul_1", "op": "Mul", "input": ["pred_pose/strided_slice_1", "pred_pose/mul_1/y"], "attr": {"T": {"type": "DT_FLOAT"}}}, {"name": "pred_pose/mul_2", "op": "Mul", "input": ["pred_pose/strided_slice_2", "pred_pose/mul_2/y"], "attr": {"T": {"type": "DT_FLOAT"}}}, {"name": "pred_pose/mul_8", "op": "Mul", "input": ["pred_pose/add_7", "pred_pose/strided_slice_6"], "attr": {"T": {"type": "DT_FLOAT"}}}, {"name": "pred_pose/mul_9", "op": "Mul", "input": ["ssr_F_Cap_model/local_delta_stage2/Tanh", "pred_pose/strided_slice_7"], "attr": {"T": {"type": "DT_FLOAT"}}}, {"name": "pred_pose/mul_10", "op": "Mul", "input": ["pred_pose/add_11", "pred_pose/strided_slice_8"], "attr": {"T": {"type": "DT_FLOAT"}}}, {"name": "pred_pose/add_1", "op": "Add", "input": ["pred_pose/mul", "pred_pose/mul_3"], "attr": {"T": {"type": "DT_FLOAT"}}}, {"name": "pred_pose/add_16", "op": "Add", "input": ["pred_pose/mul_2", "pred_pose/mul_15"], "attr": {"T": {"type": "DT_FLOAT"}}}, {"name": "pred_pose/add_8", "op": "Add", "input": ["pred_pose/mul_1", "pred_pose/mul_8"], "attr": {"T": {"type": "DT_FLOAT"}}}, {"name": "pred_pose/add_3", "op": "Add", "input": ["pred_pose/add_1", "pred_pose/mul_4"], "attr": {"T": {"type": "DT_FLOAT"}}}, {"name": "pred_pose/add_18", "op": "Add", "input": ["pred_pose/add_16", "pred_pose/mul_16"], "attr": {"T": {"type": "DT_FLOAT"}}}, {"name": "pred_pose/add_10", "op": "Add", "input": ["pred_pose/add_8", "pred_pose/mul_9"], "attr": {"T": {"type": "DT_FLOAT"}}}, {"name": "pred_pose/add_5", "op": "Add", "input": ["pred_pose/add_3", "pred_pose/mul_5"], "attr": {"T": {"type": "DT_FLOAT"}}}, {"name": "pred_pose/add_20", "op": "Add", "input": ["pred_pose/add_18", "pred_pose/mul_17"], "attr": {"T": {"type": "DT_FLOAT"}}}, {"name": "pred_pose/add_12", "op": "Add", "input": ["pred_pose/add_10", "pred_pose/mul_10"], "attr": {"T": {"type": "DT_FLOAT"}}}, {"name": "pred_pose/truediv", "op": "RealDiv", "input": ["pred_pose/add_5", "pred_pose/mul_7"], "attr": {"T": {"type": "DT_FLOAT"}}}, {"name": "pred_pose/truediv_3", "op": "RealDiv", "input": ["pred_pose/add_20", "pred_pose/mul_19"], "attr": {"T": {"type": "DT_FLOAT"}}}, {"name": "pred_pose/truediv_1", "op": "RealDiv", "input": ["pred_pose/add_12", "pred_pose/mul_12"], "attr": {"T": {"type": "DT_FLOAT"}}}, {"name": "pred_pose/truediv_4", "op": "RealDiv", "input": ["pred_pose/truediv_3", "pred_pose/mul_21"], "attr": {"T": {"type": "DT_FLOAT"}}}, {"name": "pred_pose/truediv_2", "op": "RealDiv", "input": ["pred_pose/truediv_1", "pred_pose/mul_14"], "attr": {"T": {"type": "DT_FLOAT"}}}, {"name": "pred_pose/truediv_5", "op": "RealDiv", "input": ["pred_pose/truediv_4", "pred_pose/mul_23"], "attr": {"T": {"type": "DT_FLOAT"}}}, {"name": "pred_pose/add_24", "op": "Add", "input": ["pred_pose/truediv", "pred_pose/truediv_2"], "attr": {"T": {"type": "DT_FLOAT"}}}, {"name": "pred_pose/add_25", "op": "Add", "input": ["pred_pose/add_24", "pred_pose/truediv_5"], "attr": {"T": {"type": "DT_FLOAT"}}}, {"name": "pred_pose/mul_24", "op": "Mul", "input": ["pred_pose/add_25", "pred_pose/mul_24/y"], "attr": {"T": {"type": "DT_FLOAT"}}}], "library": {}, "versions": {}}, "weightsManifest": [{"paths": ["group1-shard1of1.bin"], "weights": [{"name": "pred_pose/strided_slice/stack", "shape": [3], "dtype": "int32"}, {"name": "pred_pose/strided_slice/stack_1", "shape": [3], "dtype": "int32"}, {"name": "pred_pose/strided_slice/stack_2", "shape": [3], "dtype": "int32"}, {"name": "pred_pose/mul/y", "shape": [], "dtype": "float32"}, {"name": "pred_pose/add/x", "shape": [], "dtype": "float32"}, {"name": "pred_pose/strided_slice_3/stack", "shape": [3], "dtype": "int32"}, {"name": "pred_pose/strided_slice_3/stack_1", "shape": [3], "dtype": "int32"}, {"name": "pred_pose/strided_slice_3/stack_2", "shape": [3], "dtype": "int32"}, {"name": "pred_pose/strided_slice_4/stack", "shape": [3], "dtype": "int32"}, {"name": "pred_pose/strided_slice_4/stack_1", "shape": [3], "dtype": "int32"}, {"name": "pred_pose/strided_slice_4/stack_2", "shape": [3], "dtype": "int32"}, {"name": "pred_pose/add_4/x", "shape": [], "dtype": "float32"}, {"name": "ssr_F_Cap_model/feat_slice_layer_2/strided_slice/stack", "shape": [2], "dtype": "int32"}, {"name": "ssr_F_Cap_model/feat_slice_layer_2/strided_slice/stack_1", "shape": [2], "dtype": "int32"}, {"name": "ssr_F_Cap_model/feat_slice_layer_2/strided_slice/stack_2", "shape": [2], "dtype": "int32"}, {"name": "local_delta_stage1/kernel", "shape": [4, 3], "dtype": "float32"}, {"name": "local_delta_stage1/bias", "shape": [3], "dtype": "float32"}, {"name": "pred_pose/strided_slice_5/stack", "shape": [3], "dtype": "int32"}, {"name": "pred_pose/strided_slice_5/stack_1", "shape": [3], "dtype": "int32"}, {"name": "pred_pose/strided_slice_5/stack_2", "shape": [3], "dtype": "int32"}, {"name": "pred_pose/mul_7/x", "shape": [], "dtype": "float32"}, {"name": "pred_pose/add_6/x", "shape": [], "dtype": "float32"}, {"name": "pred_pose/strided_slice_1/stack", "shape": [3], "dtype": "int32"}, {"name": "pred_pose/strided_slice_1/stack_1", "shape": [3], "dtype": "int32"}, {"name": "pred_pose/strided_slice_1/stack_2", "shape": [3], "dtype": "int32"}, {"name": "pred_pose/mul_1/y", "shape": [], "dtype": "float32"}, {"name": "pred_pose/add_7/x", "shape": [], "dtype": "float32"}, {"name": "pred_pose/strided_slice_6/stack", "shape": [3], "dtype": "int32"}, {"name": "pred_pose/strided_slice_6/stack_1", "shape": [3], "dtype": "int32"}, {"name": "pred_pose/strided_slice_6/stack_2", "shape": [3], "dtype": "int32"}, {"name": "pred_pose/strided_slice_7/stack", "shape": [3], "dtype": "int32"}, {"name": "pred_pose/strided_slice_7/stack_1", "shape": [3], "dtype": "int32"}, {"name": "pred_pose/strided_slice_7/stack_2", "shape": [3], "dtype": "int32"}, {"name": "pred_pose/add_11/x", "shape": [], "dtype": "float32"}, {"name": "ssr_F_Cap_model/feat_slice_layer_5/strided_slice/stack", "shape": [2], "dtype": "int32"}, {"name": "ssr_F_Cap_model/feat_slice_layer_5/strided_slice/stack_1", "shape": [2], "dtype": "int32"}, {"name": "ssr_F_Cap_model/feat_slice_layer_5/strided_slice/stack_2", "shape": [2], "dtype": "int32"}, {"name": "local_delta_stage2/kernel", "shape": [4, 3], "dtype": "float32"}, {"name": "local_delta_stage2/bias", "shape": [3], "dtype": "float32"}, {"name": "ssr_F_Cap_model/feat_slice_layer_6/strided_slice/stack", "shape": [2], "dtype": "int32"}, {"name": "ssr_F_Cap_model/feat_slice_layer_6/strided_slice/stack_1", "shape": [2], "dtype": "int32"}, {"name": "ssr_F_Cap_model/feat_slice_layer_6/strided_slice/stack_2", "shape": [2], "dtype": "int32"}, {"name": "dense_4/kernel", "shape": [8, 9], "dtype": "float32"}, {"name": "dense_4/bias", "shape": [9], "dtype": "float32"}, {"name": "ssr_F_Cap_model/reshape_11/strided_slice/stack", "shape": [1], "dtype": "int32"}, {"name": "ssr_F_Cap_model/reshape_11/strided_slice/stack_1", "shape": [1], "dtype": "int32"}, {"name": "ssr_F_Cap_model/reshape_11/strided_slice/stack_2", "shape": [1], "dtype": "int32"}, {"name": "ssr_F_Cap_model/reshape_11/Reshape/shape/1", "shape": [], "dtype": "int32"}, {"name": "ssr_F_Cap_model/reshape_11/Reshape/shape/2", "shape": [], "dtype": "int32"}, {"name": "pred_pose/strided_slice_8/stack", "shape": [3], "dtype": "int32"}, {"name": "pred_pose/strided_slice_8/stack_1", "shape": [3], "dtype": "int32"}, {"name": "pred_pose/strided_slice_8/stack_2", "shape": [3], "dtype": "int32"}, {"name": "pred_pose/mul_12/x", "shape": [], "dtype": "float32"}, {"name": "pred_pose/add_13/x", "shape": [], "dtype": "float32"}, {"name": "pred_pose/mul_14/x", "shape": [], "dtype": "float32"}, {"name": "pred_pose/add_14/x", "shape": [], "dtype": "float32"}, {"name": "ssr_F_Cap_model/feat_slice_layer_3/strided_slice/stack", "shape": [2], "dtype": "int32"}, {"name": "ssr_F_Cap_model/feat_slice_layer_3/strided_slice/stack_1", "shape": [2], "dtype": "int32"}, {"name": "ssr_F_Cap_model/feat_slice_layer_3/strided_slice/stack_2", "shape": [2], "dtype": "int32"}, {"name": "dense_3/kernel", "shape": [8, 9], "dtype": "float32"}, {"name": "dense_3/bias", "shape": [9], "dtype": "float32"}, {"name": "ssr_F_Cap_model/reshape_10/strided_slice/stack", "shape": [1], "dtype": "int32"}, {"name": "ssr_F_Cap_model/reshape_10/strided_slice/stack_1", "shape": [1], "dtype": "int32"}, {"name": "ssr_F_Cap_model/reshape_10/strided_slice/stack_2", "shape": [1], "dtype": "int32"}, {"name": "ssr_F_Cap_model/reshape_10/Reshape/shape/1", "shape": [], "dtype": "int32"}, {"name": "ssr_F_Cap_model/reshape_10/Reshape/shape/2", "shape": [], "dtype": "int32"}, {"name": "pred_pose/strided_slice_2/stack", "shape": [3], "dtype": "int32"}, {"name": "pred_pose/strided_slice_2/stack_1", "shape": [3], "dtype": "int32"}, {"name": "pred_pose/strided_slice_2/stack_2", "shape": [3], "dtype": "int32"}, {"name": "pred_pose/mul_2/y", "shape": [], "dtype": "float32"}, {"name": "pred_pose/add_15/x", "shape": [], "dtype": "float32"}, {"name": "pred_pose/strided_slice_9/stack", "shape": [3], "dtype": "int32"}, {"name": "pred_pose/strided_slice_9/stack_1", "shape": [3], "dtype": "int32"}, {"name": "pred_pose/strided_slice_9/stack_2", "shape": [3], "dtype": "int32"}, {"name": "pred_pose/strided_slice_10/stack", "shape": [3], "dtype": "int32"}, {"name": "pred_pose/strided_slice_10/stack_1", "shape": [3], "dtype": "int32"}, {"name": "pred_pose/strided_slice_10/stack_2", "shape": [3], "dtype": "int32"}, {"name": "pred_pose/add_19/x", "shape": [], "dtype": "float32"}, {"name": "ssr_F_Cap_model/feat_slice_layer_8/strided_slice/stack", "shape": [2], "dtype": "int32"}, {"name": "ssr_F_Cap_model/feat_slice_layer_8/strided_slice/stack_1", "shape": [2], "dtype": "int32"}, {"name": "ssr_F_Cap_model/feat_slice_layer_8/strided_slice/stack_2", "shape": [2], "dtype": "int32"}, {"name": "local_delta_stage3/kernel", "shape": [4, 3], "dtype": "float32"}, {"name": "local_delta_stage3/bias", "shape": [3], "dtype": "float32"}, {"name": "ssr_F_Cap_model/feat_slice_layer_9/strided_slice/stack", "shape": [2], "dtype": "int32"}, {"name": "ssr_F_Cap_model/feat_slice_layer_9/strided_slice/stack_1", "shape": [2], "dtype": "int32"}, {"name": "ssr_F_Cap_model/feat_slice_layer_9/strided_slice/stack_2", "shape": [2], "dtype": "int32"}, {"name": "dense_5/kernel", "shape": [8, 9], "dtype": "float32"}, {"name": "dense_5/bias", "shape": [9], "dtype": "float32"}, {"name": "ssr_F_Cap_model/reshape_12/strided_slice/stack", "shape": [1], "dtype": "int32"}, {"name": "ssr_F_Cap_model/reshape_12/strided_slice/stack_1", "shape": [1], "dtype": "int32"}, {"name": "ssr_F_Cap_model/reshape_12/strided_slice/stack_2", "shape": [1], "dtype": "int32"}, {"name": "ssr_F_Cap_model/reshape_12/Reshape/shape/1", "shape": [], "dtype": "int32"}, {"name": "ssr_F_Cap_model/reshape_12/Reshape/shape/2", "shape": [], "dtype": "int32"}, {"name": "pred_pose/strided_slice_11/stack", "shape": [3], "dtype": "int32"}, {"name": "pred_pose/strided_slice_11/stack_1", "shape": [3], "dtype": "int32"}, {"name": "pred_pose/strided_slice_11/stack_2", "shape": [3], "dtype": "int32"}, {"name": "pred_pose/mul_19/x", "shape": [], "dtype": "float32"}, {"name": "pred_pose/add_21/x", "shape": [], "dtype": "float32"}, {"name": "ssr_Cap_model/aggregated_feature_extraction_layer_1/strided_slice/stack", "shape": [3], "dtype": "int32"}, {"name": "ssr_Cap_model/aggregated_feature_extraction_layer_1/strided_slice/stack_1", "shape": [3], "dtype": "int32"}, {"name": "ssr_Cap_model/aggregated_feature_extraction_layer_1/strided_slice/stack_2", "shape": [3], "dtype": "int32"}, {"name": "ssr_Cap_model/reshape_7/strided_slice/stack", "shape": [1], "dtype": "int32"}, {"name": "ssr_Cap_model/reshape_7/strided_slice/stack_1", "shape": [1], "dtype": "int32"}, {"name": "ssr_Cap_model/reshape_7/strided_slice/stack_2", "shape": [1], "dtype": "int32"}, {"name": "ssr_Cap_model/reshape_7/Reshape/shape/1", "shape": [], "dtype": "int32"}, {"name": "ssr_F_Cap_model/feat_slice_layer_1/strided_slice/stack", "shape": [2], "dtype": "int32"}, {"name": "ssr_F_Cap_model/feat_slice_layer_1/strided_slice/stack_1", "shape": [2], "dtype": "int32"}, {"name": "ssr_F_Cap_model/feat_slice_layer_1/strided_slice/stack_2", "shape": [2], "dtype": "int32"}, {"name": "delta_s1/kernel", "shape": [4, 3], "dtype": "float32"}, {"name": "delta_s1/bias", "shape": [3], "dtype": "float32"}, {"name": "pred_pose/mul_21/x", "shape": [], "dtype": "float32"}, {"name": "pred_pose/add_22/x", "shape": [], "dtype": "float32"}, {"name": "ssr_Cap_model/aggregated_feature_extraction_layer_1/strided_slice_1/stack", "shape": [3], "dtype": "int32"}, {"name": "ssr_Cap_model/aggregated_feature_extraction_layer_1/strided_slice_1/stack_1", "shape": [3], "dtype": "int32"}, {"name": "ssr_Cap_model/aggregated_feature_extraction_layer_1/strided_slice_1/stack_2", "shape": [3], "dtype": "int32"}, {"name": "ssr_Cap_model/reshape_8/strided_slice/stack", "shape": [1], "dtype": "int32"}, {"name": "ssr_Cap_model/reshape_8/strided_slice/stack_1", "shape": [1], "dtype": "int32"}, {"name": "ssr_Cap_model/reshape_8/strided_slice/stack_2", "shape": [1], "dtype": "int32"}, {"name": "ssr_Cap_model/reshape_8/Reshape/shape/1", "shape": [], "dtype": "int32"}, {"name": "ssr_F_Cap_model/feat_slice_layer_4/strided_slice/stack", "shape": [2], "dtype": "int32"}, {"name": "ssr_F_Cap_model/feat_slice_layer_4/strided_slice/stack_1", "shape": [2], "dtype": "int32"}, {"name": "ssr_F_Cap_model/feat_slice_layer_4/strided_slice/stack_2", "shape": [2], "dtype": "int32"}, {"name": "delta_s2/kernel", "shape": [4, 3], "dtype": "float32"}, {"name": "delta_s2/bias", "shape": [3], "dtype": "float32"}, {"name": "pred_pose/mul_23/x", "shape": [], "dtype": "float32"}, {"name": "pred_pose/add_23/x", "shape": [], "dtype": "float32"}, {"name": "ssr_Cap_model/caps/add_3/x", "shape": [], "dtype": "float32"}, {"name": "ssr_Cap_model/caps/Sum_1/reduction_indices", "shape": [], "dtype": "int32"}, {"name": "ssr_Cap_model/caps/add_4/y", "shape": [], "dtype": "float32"}, {"name": "ssr_Cap_model/caps/Const_3", "shape": [], "dtype": "float32"}, {"name": "ssr_Cap_model/caps/Const_2", "shape": [], "dtype": "float32"}, {"name": "ssr_Cap_model/caps/add/x", "shape": [], "dtype": "float32"}, {"name": "ssr_Cap_model/caps/Sum/reduction_indices", "shape": [], "dtype": "int32"}, {"name": "ssr_Cap_model/caps/add_1/y", "shape": [], "dtype": "float32"}, {"name": "ssr_Cap_model/caps/Const_1", "shape": [], "dtype": "float32"}, {"name": "ssr_Cap_model/caps/Const", "shape": [], "dtype": "float32"}, {"name": "ssr_Cap_model/caps/strided_slice/stack", "shape": [1], "dtype": "int32"}, {"name": "ssr_Cap_model/caps/strided_slice/stack_1", "shape": [1], "dtype": "int32"}, {"name": "ssr_Cap_model/caps/strided_slice/stack_2", "shape": [1], "dtype": "int32"}, {"name": "ssr_Cap_model/caps/zeros/packed/1", "shape": [], "dtype": "int32"}, {"name": "ssr_Cap_model/caps/zeros/packed/2", "shape": [], "dtype": "int32"}, {"name": "ssr_Cap_model/caps/zeros/Const", "shape": [], "dtype": "float32"}, {"name": "ssr_Cap_model/caps/concat", "shape": [3], "dtype": "int32"}, {"name": "ssr_Cap_model/caps/concat_1", "shape": [3], "dtype": "int32"}, {"name": "ssr_Cap_model/caps/concat_2/values_1", "shape": [1], "dtype": "int32"}, {"name": "ssr_Cap_model/caps/concat_2/axis", "shape": [], "dtype": "int32"}, {"name": "ssr_Cap_model/caps/concat_3/values_1", "shape": [1], "dtype": "int32"}, {"name": "ssr_Cap_model/caps/concat_3/axis", "shape": [], "dtype": "int32"}, {"name": "ssr_Cap_model/caps/concat_4", "shape": [3], "dtype": "int32"}, {"name": "ssr_Cap_model/caps/concat_5", "shape": [3], "dtype": "int32"}, {"name": "ssr_Cap_model/caps/concat_6/values_1", "shape": [1], "dtype": "int32"}, {"name": "ssr_Cap_model/caps/concat_6/axis", "shape": [], "dtype": "int32"}, {"name": "ssr_Cap_model/caps/map/TensorArrayStack/range/start", "shape": [], "dtype": "int32"}, {"name": "ssr_Cap_model/caps/map/TensorArrayStack/range/delta", "shape": [], "dtype": "int32"}, {"name": "ssr_Cap_model/caps/map/TensorArrayUnstack/range/start", "shape": [], "dtype": "int32"}, {"name": "ssr_Cap_model/caps/map/TensorArrayUnstack/strided_slice/stack", "shape": [1], "dtype": "int32"}, {"name": "ssr_Cap_model/caps/map/TensorArrayUnstack/strided_slice/stack_1", "shape": [1], "dtype": "int32"}, {"name": "ssr_Cap_model/caps/map/TensorArrayUnstack/strided_slice/stack_2", "shape": [1], "dtype": "int32"}, {"name": "ssr_Cap_model/caps/map/TensorArrayUnstack/range/delta", "shape": [], "dtype": "int32"}, {"name": "caps/W", "shape": [3, 21, 16, 64], "dtype": "float32"}, {"name": "ssr_Cap_model/caps/map/Const", "shape": [], "dtype": "int32"}, {"name": "ssr_Cap_model/caps/map/while/iteration_counter", "shape": [], "dtype": "int32"}, {"name": "ssr_S_model/feat_S_model_2/reshape_2/strided_slice/stack", "shape": [1], "dtype": "int32"}, {"name": "ssr_S_model/feat_S_model_2/reshape_2/strided_slice/stack_1", "shape": [1], "dtype": "int32"}, {"name": "ssr_S_model/feat_S_model_2/reshape_2/strided_slice/stack_2", "shape": [1], "dtype": "int32"}, {"name": "ssr_S_model/feat_S_model_2/reshape_2/Reshape/shape/1", "shape": [], "dtype": "int32"}, {"name": "ssr_S_model/feat_S_model_2/reshape_2/Reshape/shape/2", "shape": [], "dtype": "int32"}, {"name": "ssr_S_model/matrix_norm_layer_1/Sum/reduction_indices", "shape": [], "dtype": "int32"}, {"name": "ssr_S_model/matrix_norm_layer_1/Tile/multiples", "shape": [3], "dtype": "int32"}, {"name": "ssr_S_model/feat_S_model_1/reshape_2/strided_slice/stack", "shape": [1], "dtype": "int32"}, {"name": "ssr_S_model/feat_S_model_1/reshape_2/strided_slice/stack_1", "shape": [1], "dtype": "int32"}, {"name": "ssr_S_model/feat_S_model_1/reshape_2/strided_slice/stack_2", "shape": [1], "dtype": "int32"}, {"name": "ssr_S_model/feat_S_model_1/reshape_2/Reshape/shape/1", "shape": [], "dtype": "int32"}, {"name": "ssr_S_model/feat_S_model_1/reshape_2/Reshape/shape/2", "shape": [], "dtype": "int32"}, {"name": "ssr_S_model/matrix_norm_layer_2/Sum/reduction_indices", "shape": [], "dtype": "int32"}, {"name": "ssr_S_model/matrix_norm_layer_2/Tile/multiples", "shape": [3], "dtype": "int32"}, {"name": "ssr_S_model/reshape_4/strided_slice/stack", "shape": [1], "dtype": "int32"}, {"name": "ssr_S_model/reshape_4/strided_slice/stack_1", "shape": [1], "dtype": "int32"}, {"name": "ssr_S_model/reshape_4/strided_slice/stack_2", "shape": [1], "dtype": "int32"}, {"name": "ssr_S_model/reshape_4/Reshape/shape/1", "shape": [], "dtype": "int32"}, {"name": "ssr_S_model/reshape_4/Reshape/shape/2", "shape": [], "dtype": "int32"}, {"name": "ssr_S_model/reshape_5/strided_slice/stack", "shape": [1], "dtype": "int32"}, {"name": "ssr_S_model/reshape_5/strided_slice/stack_1", "shape": [1], "dtype": "int32"}, {"name": "ssr_S_model/reshape_5/strided_slice/stack_2", "shape": [1], "dtype": "int32"}, {"name": "ssr_S_model/reshape_5/Reshape/shape/1", "shape": [], "dtype": "int32"}, {"name": "ssr_S_model/reshape_5/Reshape/shape/2", "shape": [], "dtype": "int32"}, {"name": "ssr_S_model/reshape_6/strided_slice/stack", "shape": [1], "dtype": "int32"}, {"name": "ssr_S_model/reshape_6/strided_slice/stack_1", "shape": [1], "dtype": "int32"}, {"name": "ssr_S_model/reshape_6/strided_slice/stack_2", "shape": [1], "dtype": "int32"}, {"name": "ssr_S_model/reshape_6/Reshape/shape/1", "shape": [], "dtype": "int32"}, {"name": "ssr_S_model/reshape_6/Reshape/shape/2", "shape": [], "dtype": "int32"}, {"name": "ssr_S_model/concatenate_2/concat/axis", "shape": [], "dtype": "int32"}, {"name": "separable_conv2d_13/depthwise_kernel", "shape": [3, 3, 64, 1], "dtype": "float32"}, {"name": "separable_conv2d_14/depthwise_kernel", "shape": [3, 3, 128, 1], "dtype": "float32"}, {"name": "conv2d_1/kernel", "shape": [1, 1, 128, 64], "dtype": "float32"}, {"name": "conv2d_1/bias", "shape": [64], "dtype": "float32"}, {"name": "separable_conv2d_6/depthwise_kernel", "shape": [3, 3, 64, 1], "dtype": "float32"}, {"name": "separable_conv2d_7/depthwise_kernel", "shape": [3, 3, 128, 1], "dtype": "float32"}, {"name": "conv2d_2/kernel", "shape": [1, 1, 128, 64], "dtype": "float32"}, {"name": "conv2d_2/bias", "shape": [64], "dtype": "float32"}, {"name": "ssr_S_model/feat_S_model_2/reshape_1/strided_slice/stack", "shape": [1], "dtype": "int32"}, {"name": "ssr_S_model/feat_S_model_2/reshape_1/strided_slice/stack_1", "shape": [1], "dtype": "int32"}, {"name": "ssr_S_model/feat_S_model_2/reshape_1/strided_slice/stack_2", "shape": [1], "dtype": "int32"}, {"name": "ssr_S_model/feat_S_model_2/reshape_1/Reshape/shape/1", "shape": [], "dtype": "int32"}, {"name": "separable_conv2d_11/depthwise_kernel", "shape": [3, 3, 32, 1], "dtype": "float32"}, {"name": "separable_conv2d_12/depthwise_kernel", "shape": [3, 3, 64, 1], "dtype": "float32"}, {"name": "conv2d_3/kernel", "shape": [1, 1, 64, 64], "dtype": "float32"}, {"name": "conv2d_3/bias", "shape": [64], "dtype": "float32"}, {"name": "separable_conv2d_4/depthwise_kernel", "shape": [3, 3, 32, 1], "dtype": "float32"}, {"name": "separable_conv2d_5/depthwise_kernel", "shape": [3, 3, 64, 1], "dtype": "float32"}, {"name": "conv2d_4/kernel", "shape": [1, 1, 64, 64], "dtype": "float32"}, {"name": "conv2d_4/bias", "shape": [64], "dtype": "float32"}, {"name": "ssr_S_model/feat_S_model_1/reshape_1/strided_slice/stack", "shape": [1], "dtype": "int32"}, {"name": "ssr_S_model/feat_S_model_1/reshape_1/strided_slice/stack_1", "shape": [1], "dtype": "int32"}, {"name": "ssr_S_model/feat_S_model_1/reshape_1/strided_slice/stack_2", "shape": [1], "dtype": "int32"}, {"name": "ssr_S_model/feat_S_model_1/reshape_1/Reshape/shape/1", "shape": [], "dtype": "int32"}, {"name": "ssr_S_model/concatenate_1/concat/axis", "shape": [], "dtype": "int32"}, {"name": "dense_2/kernel", "shape": [192, 35], "dtype": "float32"}, {"name": "dense_2/bias", "shape": [35], "dtype": "float32"}, {"name": "ssr_S_model/reshape_3/strided_slice/stack", "shape": [1], "dtype": "int32"}, {"name": "ssr_S_model/reshape_3/strided_slice/stack_1", "shape": [1], "dtype": "int32"}, {"name": "ssr_S_model/reshape_3/strided_slice/stack_2", "shape": [1], "dtype": "int32"}, {"name": "ssr_S_model/reshape_3/Reshape/shape/1", "shape": [], "dtype": "int32"}, {"name": "ssr_S_model/reshape_3/Reshape/shape/2", "shape": [], "dtype": "int32"}, {"name": "separable_conv2d_8/depthwise_kernel", "shape": [3, 3, 3, 1], "dtype": "float32"}, {"name": "separable_conv2d_9/depthwise_kernel", "shape": [3, 3, 16, 1], "dtype": "float32"}, {"name": "separable_conv2d_10/depthwise_kernel", "shape": [3, 3, 32, 1], "dtype": "float32"}, {"name": "conv2d_5/kernel", "shape": [1, 1, 32, 64], "dtype": "float32"}, {"name": "conv2d_5/bias", "shape": [64], "dtype": "float32"}, {"name": "separable_conv2d_1/depthwise_kernel", "shape": [3, 3, 3, 1], "dtype": "float32"}, {"name": "separable_conv2d_2/depthwise_kernel", "shape": [3, 3, 16, 1], "dtype": "float32"}, {"name": "separable_conv2d_3/depthwise_kernel", "shape": [3, 3, 32, 1], "dtype": "float32"}, {"name": "conv2d_6/kernel", "shape": [1, 1, 32, 64], "dtype": "float32"}, {"name": "conv2d_6/bias", "shape": [64], "dtype": "float32"}, {"name": "conv2d_7/kernel", "shape": [1, 1, 64, 1], "dtype": "float32"}, {"name": "conv2d_7/bias", "shape": [1], "dtype": "float32"}, {"name": "ssr_S_model/feat_S_model/reshape_1/strided_slice/stack", "shape": [1], "dtype": "int32"}, {"name": "ssr_S_model/feat_S_model/reshape_1/strided_slice/stack_1", "shape": [1], "dtype": "int32"}, {"name": "ssr_S_model/feat_S_model/reshape_1/strided_slice/stack_2", "shape": [1], "dtype": "int32"}, {"name": "ssr_S_model/feat_S_model/reshape_1/Reshape/shape/1", "shape": [], "dtype": "int32"}, {"name": "dense_1/kernel", "shape": [64, 960], "dtype": "float32"}, {"name": "dense_1/bias", "shape": [960], "dtype": "float32"}, {"name": "ssr_S_model/feat_S_model/reshape_2/strided_slice/stack", "shape": [1], "dtype": "int32"}, {"name": "ssr_S_model/feat_S_model/reshape_2/strided_slice/stack_1", "shape": [1], "dtype": "int32"}, {"name": "ssr_S_model/feat_S_model/reshape_2/strided_slice/stack_2", "shape": [1], "dtype": "int32"}, {"name": "ssr_S_model/feat_S_model/reshape_2/Reshape/shape/1", "shape": [], "dtype": "int32"}, {"name": "ssr_S_model/feat_S_model/reshape_2/Reshape/shape/2", "shape": [], "dtype": "int32"}, {"name": "ssr_S_model/matrix_norm_layer_3/Sum/reduction_indices", "shape": [], "dtype": "int32"}, {"name": "ssr_S_model/matrix_norm_layer_3/Tile/multiples", "shape": [3], "dtype": "int32"}, {"name": "ssr_S_model/concatenate_3/concat/axis", "shape": [], "dtype": "int32"}, {"name": "ssr_Cap_model/caps/ExpandDims/dim", "shape": [], "dtype": "int32"}, {"name": "ssr_Cap_model/caps/Tile/multiples", "shape": [4], "dtype": "int32"}, {"name": "ssr_Cap_model/caps/map/strided_slice/stack", "shape": [1], "dtype": "int32"}, {"name": "ssr_Cap_model/caps/map/strided_slice/stack_1", "shape": [1], "dtype": "int32"}, {"name": "ssr_Cap_model/caps/map/strided_slice/stack_2", "shape": [1], "dtype": "int32"}, {"name": "ssr_Cap_model/aggregated_feature_extraction_layer_1/strided_slice_2/stack", "shape": [3], "dtype": "int32"}, {"name": "ssr_Cap_model/aggregated_feature_extraction_layer_1/strided_slice_2/stack_1", "shape": [3], "dtype": "int32"}, {"name": "ssr_Cap_model/aggregated_feature_extraction_layer_1/strided_slice_2/stack_2", "shape": [3], "dtype": "int32"}, {"name": "ssr_Cap_model/reshape_9/strided_slice/stack", "shape": [1], "dtype": "int32"}, {"name": "ssr_Cap_model/reshape_9/strided_slice/stack_1", "shape": [1], "dtype": "int32"}, {"name": "ssr_Cap_model/reshape_9/strided_slice/stack_2", "shape": [1], "dtype": "int32"}, {"name": "ssr_Cap_model/reshape_9/Reshape/shape/1", "shape": [], "dtype": "int32"}, {"name": "ssr_F_Cap_model/feat_slice_layer_7/strided_slice/stack", "shape": [2], "dtype": "int32"}, {"name": "ssr_F_Cap_model/feat_slice_layer_7/strided_slice/stack_1", "shape": [2], "dtype": "int32"}, {"name": "ssr_F_Cap_model/feat_slice_layer_7/strided_slice/stack_2", "shape": [2], "dtype": "int32"}, {"name": "delta_s3/kernel", "shape": [4, 3], "dtype": "float32"}, {"name": "delta_s3/bias", "shape": [3], "dtype": "float32"}, {"name": "pred_pose/mul_24/y", "shape": [], "dtype": "float32"}, {"name": "ssr_G_model/separable_conv2d_8/separable_conv2d_weights", "shape": [1, 1, 3, 16], "dtype": "float32"}, {"name": "ssr_G_model/separable_conv2d_8/separable_conv2d_bn_offset", "shape": [16], "dtype": "float32"}, {"name": "ssr_G_model/separable_conv2d_1/separable_conv2d_weights", "shape": [1, 1, 3, 16], "dtype": "float32"}, {"name": "ssr_G_model/separable_conv2d_1/separable_conv2d_bn_offset", "shape": [16], "dtype": "float32"}, {"name": "ssr_G_model/separable_conv2d_9/separable_conv2d_weights", "shape": [1, 1, 16, 32], "dtype": "float32"}, {"name": "ssr_G_model/separable_conv2d_9/separable_conv2d_bn_offset", "shape": [32], "dtype": "float32"}, {"name": "ssr_G_model/separable_conv2d_2/separable_conv2d_weights", "shape": [1, 1, 16, 32], "dtype": "float32"}, {"name": "ssr_G_model/separable_conv2d_2/separable_conv2d_bn_offset", "shape": [32], "dtype": "float32"}, {"name": "ssr_G_model/separable_conv2d_10/separable_conv2d_weights", "shape": [1, 1, 32, 32], "dtype": "float32"}, {"name": "ssr_G_model/separable_conv2d_10/separable_conv2d_bn_offset", "shape": [32], "dtype": "float32"}, {"name": "ssr_G_model/separable_conv2d_3/separable_conv2d_weights", "shape": [1, 1, 32, 32], "dtype": "float32"}, {"name": "ssr_G_model/separable_conv2d_3/separable_conv2d_bn_offset", "shape": [32], "dtype": "float32"}, {"name": "ssr_G_model/separable_conv2d_11/separable_conv2d_weights", "shape": [1, 1, 32, 64], "dtype": "float32"}, {"name": "ssr_G_model/separable_conv2d_11/separable_conv2d_bn_offset", "shape": [64], "dtype": "float32"}, {"name": "ssr_G_model/separable_conv2d_4/separable_conv2d_weights", "shape": [1, 1, 32, 64], "dtype": "float32"}, {"name": "ssr_G_model/separable_conv2d_4/separable_conv2d_bn_offset", "shape": [64], "dtype": "float32"}, {"name": "ssr_G_model/separable_conv2d_12/separable_conv2d_weights", "shape": [1, 1, 64, 64], "dtype": "float32"}, {"name": "ssr_G_model/separable_conv2d_12/separable_conv2d_bn_offset", "shape": [64], "dtype": "float32"}, {"name": "ssr_G_model/separable_conv2d_5/separable_conv2d_weights", "shape": [1, 1, 64, 64], "dtype": "float32"}, {"name": "ssr_G_model/separable_conv2d_5/separable_conv2d_bn_offset", "shape": [64], "dtype": "float32"}, {"name": "ssr_G_model/separable_conv2d_13/separable_conv2d_weights", "shape": [1, 1, 64, 128], "dtype": "float32"}, {"name": "ssr_G_model/separable_conv2d_13/separable_conv2d_bn_offset", "shape": [128], "dtype": "float32"}, {"name": "ssr_G_model/separable_conv2d_6/separable_conv2d_weights", "shape": [1, 1, 64, 128], "dtype": "float32"}, {"name": "ssr_G_model/separable_conv2d_6/separable_conv2d_bn_offset", "shape": [128], "dtype": "float32"}, {"name": "ssr_G_model/separable_conv2d_14/separable_conv2d_weights", "shape": [1, 1, 128, 128], "dtype": "float32"}, {"name": "ssr_G_model/separable_conv2d_14/separable_conv2d_bn_offset", "shape": [128], "dtype": "float32"}, {"name": "ssr_G_model/separable_conv2d_7/separable_conv2d_weights", "shape": [1, 1, 128, 128], "dtype": "float32"}, {"name": "ssr_G_model/separable_conv2d_7/separable_conv2d_bn_offset", "shape": [128], "dtype": "float32"}, {"name": "ConstantFolding/caps/W_enter", "shape": [3, 21, 16, 64], "dtype": "float32"}, {"name": "ssr_Cap_model/caps/map/while/concat", "shape": [4], "dtype": "int32"}, {"name": "ssr_Cap_model/caps/map/while/add/y", "shape": [], "dtype": "int32"}, {"name": "ssr_Cap_model/caps/map/while/add_1/y", "shape": [], "dtype": "int32"}]}]}